{"format": "graph-model", "generatedBy": "2.19.0", "convertedBy": "TensorFlow.js Converter v4.22.0", "signature": {"inputs": {"input_layer": {"name": "input_layer:0", "dtype": "DT_FLOAT", "tensorShape": {"dim": [{"size": "-1"}, {"size": "30"}, {"size": "199"}]}}}, "outputs": {"output_0": {"name": "Identity:0", "dtype": "DT_FLOAT", "tensorShape": {"dim": [{"size": "-1"}, {"size": "30"}, {"size": "199"}]}}}}, "modelTopology": {"node": [{"name": "StatefulPartitionedCall/functional_1/time_distributed_1/strided_slice_1/stack", "op": "Const", "attr": {"value": {"tensor": {"dtype": "DT_INT32", "tensorShape": {"dim": [{"size": "1"}]}}}, "dtype": {"type": "DT_INT32"}}}, {"name": "StatefulPartitionedCall/functional_1/time_distributed_1/strided_slice_1/stack_1", "op": "Const", "attr": {"value": {"tensor": {"dtype": "DT_INT32", "tensorShape": {"dim": [{"size": "1"}]}}}, "dtype": {"type": "DT_INT32"}}}, {"name": "StatefulPartitionedCall/functional_1/time_distributed_1/strided_slice_1/stack_2", "op": "Const", "attr": {"value": {"tensor": {"dtype": "DT_INT32", "tensorShape": {"dim": [{"size": "1"}]}}}, "dtype": {"type": "DT_INT32"}}}, {"name": "StatefulPartitionedCall/functional_1/time_distributed_1/Cast/ReadVariableOp", "op": "Const", "attr": {"value": {"tensor": {"dtype": "DT_FLOAT", "tensorShape": {"dim": [{"size": "128"}, {"size": "199"}]}}}, "dtype": {"type": "DT_FLOAT"}}}, {"name": "StatefulPartitionedCall/functional_1/time_distributed_1/BiasAdd/ReadVariableOp", "op": "Const", "attr": {"value": {"tensor": {"dtype": "DT_FLOAT", "tensorShape": {"dim": [{"size": "199"}]}}}, "dtype": {"type": "DT_FLOAT"}}}, {"name": "StatefulPartitionedCall/functional_1/time_distributed_1/strided_slice_2/stack", "op": "Const", "attr": {"value": {"tensor": {"dtype": "DT_INT32", "tensorShape": {"dim": [{"size": "1"}]}}}, "dtype": {"type": "DT_INT32"}}}, {"name": "StatefulPartitionedCall/functional_1/time_distributed_1/strided_slice_2/stack_1", "op": "Const", "attr": {"value": {"tensor": {"dtype": "DT_INT32", "tensorShape": {"dim": [{"size": "1"}]}}}, "dtype": {"type": "DT_INT32"}}}, {"name": "StatefulPartitionedCall/functional_1/time_distributed_1/strided_slice_2/stack_2", "op": "Const", "attr": {"value": {"tensor": {"dtype": "DT_INT32", "tensorShape": {"dim": [{"size": "1"}]}}}, "dtype": {"type": "DT_INT32"}}}, {"name": "StatefulPartitionedCall/functional_1/time_distributed_1/Cast_1/ReadVariableOp", "op": "Const", "attr": {"value": {"tensor": {"dtype": "DT_FLOAT", "tensorShape": {"dim": [{"size": "128"}, {"size": "199"}]}}}, "dtype": {"type": "DT_FLOAT"}}}, {"name": "StatefulPartitionedCall/functional_1/time_distributed_1/BiasAdd_1/ReadVariableOp", "op": "Const", "attr": {"value": {"tensor": {"dtype": "DT_FLOAT", "tensorShape": {"dim": [{"size": "199"}]}}}, "dtype": {"type": "DT_FLOAT"}}}, {"name": "StatefulPartitionedCall/functional_1/time_distributed_1/strided_slice_3/stack", "op": "Const", "attr": {"value": {"tensor": {"dtype": "DT_INT32", "tensorShape": {"dim": [{"size": "1"}]}}}, "dtype": {"type": "DT_INT32"}}}, {"name": "StatefulPartitionedCall/functional_1/time_distributed_1/strided_slice_3/stack_1", "op": "Const", "attr": {"value": {"tensor": {"dtype": "DT_INT32", "tensorShape": {"dim": [{"size": "1"}]}}}, "dtype": {"type": "DT_INT32"}}}, {"name": "StatefulPartitionedCall/functional_1/time_distributed_1/strided_slice_3/stack_2", "op": "Const", "attr": {"value": {"tensor": {"dtype": "DT_INT32", "tensorShape": {"dim": [{"size": "1"}]}}}, "dtype": {"type": "DT_INT32"}}}, {"name": "StatefulPartitionedCall/functional_1/time_distributed_1/Cast_2/ReadVariableOp", "op": "Const", "attr": {"value": {"tensor": {"dtype": "DT_FLOAT", "tensorShape": {"dim": [{"size": "128"}, {"size": "199"}]}}}, "dtype": {"type": "DT_FLOAT"}}}, {"name": "StatefulPartitionedCall/functional_1/time_distributed_1/BiasAdd_2/ReadVariableOp", "op": "Const", "attr": {"value": {"tensor": {"dtype": "DT_FLOAT", "tensorShape": {"dim": [{"size": "199"}]}}}, "dtype": {"type": "DT_FLOAT"}}}, {"name": "StatefulPartitionedCall/functional_1/time_distributed_1/strided_slice_4/stack", "op": "Const", "attr": {"value": {"tensor": {"dtype": "DT_INT32", "tensorShape": {"dim": [{"size": "1"}]}}}, "dtype": {"type": "DT_INT32"}}}, {"name": "StatefulPartitionedCall/functional_1/time_distributed_1/strided_slice_4/stack_1", "op": "Const", "attr": {"value": {"tensor": {"dtype": "DT_INT32", "tensorShape": {"dim": [{"size": "1"}]}}}, "dtype": {"type": "DT_INT32"}}}, {"name": "StatefulPartitionedCall/functional_1/time_distributed_1/strided_slice_4/stack_2", "op": "Const", "attr": {"value": {"tensor": {"dtype": "DT_INT32", "tensorShape": {"dim": [{"size": "1"}]}}}, "dtype": {"type": "DT_INT32"}}}, {"name": "StatefulPartitionedCall/functional_1/time_distributed_1/Cast_3/ReadVariableOp", "op": "Const", "attr": {"value": {"tensor": {"dtype": "DT_FLOAT", "tensorShape": {"dim": [{"size": "128"}, {"size": "199"}]}}}, "dtype": {"type": "DT_FLOAT"}}}, {"name": "StatefulPartitionedCall/functional_1/time_distributed_1/BiasAdd_3/ReadVariableOp", "op": "Const", "attr": {"value": {"tensor": {"dtype": "DT_FLOAT", "tensorShape": {"dim": [{"size": "199"}]}}}, "dtype": {"type": "DT_FLOAT"}}}, {"name": "StatefulPartitionedCall/functional_1/time_distributed_1/strided_slice_5/stack", "op": "Const", "attr": {"value": {"tensor": {"dtype": "DT_INT32", "tensorShape": {"dim": [{"size": "1"}]}}}, "dtype": {"type": "DT_INT32"}}}, {"name": "StatefulPartitionedCall/functional_1/time_distributed_1/strided_slice_5/stack_1", "op": "Const", "attr": {"value": {"tensor": {"dtype": "DT_INT32", "tensorShape": {"dim": [{"size": "1"}]}}}, "dtype": {"type": "DT_INT32"}}}, {"name": "StatefulPartitionedCall/functional_1/time_distributed_1/strided_slice_5/stack_2", "op": "Const", "attr": {"value": {"tensor": {"dtype": "DT_INT32", "tensorShape": {"dim": [{"size": "1"}]}}}, "dtype": {"type": "DT_INT32"}}}, {"name": "StatefulPartitionedCall/functional_1/time_distributed_1/Cast_4/ReadVariableOp", "op": "Const", "attr": {"value": {"tensor": {"dtype": "DT_FLOAT", "tensorShape": {"dim": [{"size": "128"}, {"size": "199"}]}}}, "dtype": {"type": "DT_FLOAT"}}}, {"name": "StatefulPartitionedCall/functional_1/time_distributed_1/BiasAdd_4/ReadVariableOp", "op": "Const", "attr": {"value": {"tensor": {"dtype": "DT_FLOAT", "tensorShape": {"dim": [{"size": "199"}]}}}, "dtype": {"type": "DT_FLOAT"}}}, {"name": "StatefulPartitionedCall/functional_1/time_distributed_1/strided_slice_6/stack", "op": "Const", "attr": {"value": {"tensor": {"dtype": "DT_INT32", "tensorShape": {"dim": [{"size": "1"}]}}}, "dtype": {"type": "DT_INT32"}}}, {"name": "StatefulPartitionedCall/functional_1/time_distributed_1/strided_slice_6/stack_1", "op": "Const", "attr": {"value": {"tensor": {"dtype": "DT_INT32", "tensorShape": {"dim": [{"size": "1"}]}}}, "dtype": {"type": "DT_INT32"}}}, {"name": "StatefulPartitionedCall/functional_1/time_distributed_1/strided_slice_6/stack_2", "op": "Const", "attr": {"value": {"tensor": {"dtype": "DT_INT32", "tensorShape": {"dim": [{"size": "1"}]}}}, "dtype": {"type": "DT_INT32"}}}, {"name": "StatefulPartitionedCall/functional_1/time_distributed_1/Cast_5/ReadVariableOp", "op": "Const", "attr": {"value": {"tensor": {"dtype": "DT_FLOAT", "tensorShape": {"dim": [{"size": "128"}, {"size": "199"}]}}}, "dtype": {"type": "DT_FLOAT"}}}, {"name": "StatefulPartitionedCall/functional_1/time_distributed_1/BiasAdd_5/ReadVariableOp", "op": "Const", "attr": {"value": {"tensor": {"dtype": "DT_FLOAT", "tensorShape": {"dim": [{"size": "199"}]}}}, "dtype": {"type": "DT_FLOAT"}}}, {"name": "StatefulPartitionedCall/functional_1/time_distributed_1/strided_slice_7/stack", "op": "Const", "attr": {"value": {"tensor": {"dtype": "DT_INT32", "tensorShape": {"dim": [{"size": "1"}]}}}, "dtype": {"type": "DT_INT32"}}}, {"name": "StatefulPartitionedCall/functional_1/time_distributed_1/strided_slice_7/stack_1", "op": "Const", "attr": {"value": {"tensor": {"dtype": "DT_INT32", "tensorShape": {"dim": [{"size": "1"}]}}}, "dtype": {"type": "DT_INT32"}}}, {"name": "StatefulPartitionedCall/functional_1/time_distributed_1/strided_slice_7/stack_2", "op": "Const", "attr": {"value": {"tensor": {"dtype": "DT_INT32", "tensorShape": {"dim": [{"size": "1"}]}}}, "dtype": {"type": "DT_INT32"}}}, {"name": "StatefulPartitionedCall/functional_1/time_distributed_1/Cast_6/ReadVariableOp", "op": "Const", "attr": {"value": {"tensor": {"dtype": "DT_FLOAT", "tensorShape": {"dim": [{"size": "128"}, {"size": "199"}]}}}, "dtype": {"type": "DT_FLOAT"}}}, {"name": "StatefulPartitionedCall/functional_1/time_distributed_1/BiasAdd_6/ReadVariableOp", "op": "Const", "attr": {"value": {"tensor": {"dtype": "DT_FLOAT", "tensorShape": {"dim": [{"size": "199"}]}}}, "dtype": {"type": "DT_FLOAT"}}}, {"name": "StatefulPartitionedCall/functional_1/time_distributed_1/strided_slice_8/stack", "op": "Const", "attr": {"value": {"tensor": {"dtype": "DT_INT32", "tensorShape": {"dim": [{"size": "1"}]}}}, "dtype": {"type": "DT_INT32"}}}, {"name": "StatefulPartitionedCall/functional_1/time_distributed_1/strided_slice_8/stack_1", "op": "Const", "attr": {"value": {"tensor": {"dtype": "DT_INT32", "tensorShape": {"dim": [{"size": "1"}]}}}, "dtype": {"type": "DT_INT32"}}}, {"name": "StatefulPartitionedCall/functional_1/time_distributed_1/strided_slice_8/stack_2", "op": "Const", "attr": {"value": {"tensor": {"dtype": "DT_INT32", "tensorShape": {"dim": [{"size": "1"}]}}}, "dtype": {"type": "DT_INT32"}}}, {"name": "StatefulPartitionedCall/functional_1/time_distributed_1/Cast_7/ReadVariableOp", "op": "Const", "attr": {"value": {"tensor": {"dtype": "DT_FLOAT", "tensorShape": {"dim": [{"size": "128"}, {"size": "199"}]}}}, "dtype": {"type": "DT_FLOAT"}}}, {"name": "StatefulPartitionedCall/functional_1/time_distributed_1/BiasAdd_7/ReadVariableOp", "op": "Const", "attr": {"value": {"tensor": {"dtype": "DT_FLOAT", "tensorShape": {"dim": [{"size": "199"}]}}}, "dtype": {"type": "DT_FLOAT"}}}, {"name": "StatefulPartitionedCall/functional_1/time_distributed_1/strided_slice_9/stack", "op": "Const", "attr": {"value": {"tensor": {"dtype": "DT_INT32", "tensorShape": {"dim": [{"size": "1"}]}}}, "dtype": {"type": "DT_INT32"}}}, {"name": "StatefulPartitionedCall/functional_1/time_distributed_1/strided_slice_9/stack_1", "op": "Const", "attr": {"value": {"tensor": {"dtype": "DT_INT32", "tensorShape": {"dim": [{"size": "1"}]}}}, "dtype": {"type": "DT_INT32"}}}, {"name": "StatefulPartitionedCall/functional_1/time_distributed_1/strided_slice_9/stack_2", "op": "Const", "attr": {"value": {"tensor": {"dtype": "DT_INT32", "tensorShape": {"dim": [{"size": "1"}]}}}, "dtype": {"type": "DT_INT32"}}}, {"name": "StatefulPartitionedCall/functional_1/time_distributed_1/Cast_8/ReadVariableOp", "op": "Const", "attr": {"value": {"tensor": {"dtype": "DT_FLOAT", "tensorShape": {"dim": [{"size": "128"}, {"size": "199"}]}}}, "dtype": {"type": "DT_FLOAT"}}}, {"name": "StatefulPartitionedCall/functional_1/time_distributed_1/BiasAdd_8/ReadVariableOp", "op": "Const", "attr": {"value": {"tensor": {"dtype": "DT_FLOAT", "tensorShape": {"dim": [{"size": "199"}]}}}, "dtype": {"type": "DT_FLOAT"}}}, {"name": "StatefulPartitionedCall/functional_1/time_distributed_1/strided_slice_10/stack", "op": "Const", "attr": {"value": {"tensor": {"dtype": "DT_INT32", "tensorShape": {"dim": [{"size": "1"}]}}}, "dtype": {"type": "DT_INT32"}}}, {"name": "StatefulPartitionedCall/functional_1/time_distributed_1/strided_slice_10/stack_1", "op": "Const", "attr": {"value": {"tensor": {"dtype": "DT_INT32", "tensorShape": {"dim": [{"size": "1"}]}}}, "dtype": {"type": "DT_INT32"}}}, {"name": "StatefulPartitionedCall/functional_1/time_distributed_1/strided_slice_10/stack_2", "op": "Const", "attr": {"value": {"tensor": {"dtype": "DT_INT32", "tensorShape": {"dim": [{"size": "1"}]}}}, "dtype": {"type": "DT_INT32"}}}, {"name": "StatefulPartitionedCall/functional_1/time_distributed_1/Cast_9/ReadVariableOp", "op": "Const", "attr": {"value": {"tensor": {"dtype": "DT_FLOAT", "tensorShape": {"dim": [{"size": "128"}, {"size": "199"}]}}}, "dtype": {"type": "DT_FLOAT"}}}, {"name": "StatefulPartitionedCall/functional_1/time_distributed_1/BiasAdd_9/ReadVariableOp", "op": "Const", "attr": {"value": {"tensor": {"dtype": "DT_FLOAT", "tensorShape": {"dim": [{"size": "199"}]}}}, "dtype": {"type": "DT_FLOAT"}}}, {"name": "StatefulPartitionedCall/functional_1/time_distributed_1/strided_slice_11/stack", "op": "Const", "attr": {"value": {"tensor": {"dtype": "DT_INT32", "tensorShape": {"dim": [{"size": "1"}]}}}, "dtype": {"type": "DT_INT32"}}}, {"name": "StatefulPartitionedCall/functional_1/time_distributed_1/strided_slice_11/stack_1", "op": "Const", "attr": {"value": {"tensor": {"dtype": "DT_INT32", "tensorShape": {"dim": [{"size": "1"}]}}}, "dtype": {"type": "DT_INT32"}}}, {"name": "StatefulPartitionedCall/functional_1/time_distributed_1/strided_slice_11/stack_2", "op": "Const", "attr": {"value": {"tensor": {"dtype": "DT_INT32", "tensorShape": {"dim": [{"size": "1"}]}}}, "dtype": {"type": "DT_INT32"}}}, {"name": "StatefulPartitionedCall/functional_1/time_distributed_1/Cast_10/ReadVariableOp", "op": "Const", "attr": {"value": {"tensor": {"dtype": "DT_FLOAT", "tensorShape": {"dim": [{"size": "128"}, {"size": "199"}]}}}, "dtype": {"type": "DT_FLOAT"}}}, {"name": "StatefulPartitionedCall/functional_1/time_distributed_1/BiasAdd_10/ReadVariableOp", "op": "Const", "attr": {"value": {"tensor": {"dtype": "DT_FLOAT", "tensorShape": {"dim": [{"size": "199"}]}}}, "dtype": {"type": "DT_FLOAT"}}}, {"name": "StatefulPartitionedCall/functional_1/time_distributed_1/strided_slice_12/stack", "op": "Const", "attr": {"value": {"tensor": {"dtype": "DT_INT32", "tensorShape": {"dim": [{"size": "1"}]}}}, "dtype": {"type": "DT_INT32"}}}, {"name": "StatefulPartitionedCall/functional_1/time_distributed_1/strided_slice_12/stack_1", "op": "Const", "attr": {"value": {"tensor": {"dtype": "DT_INT32", "tensorShape": {"dim": [{"size": "1"}]}}}, "dtype": {"type": "DT_INT32"}}}, {"name": "StatefulPartitionedCall/functional_1/time_distributed_1/strided_slice_12/stack_2", "op": "Const", "attr": {"value": {"tensor": {"dtype": "DT_INT32", "tensorShape": {"dim": [{"size": "1"}]}}}, "dtype": {"type": "DT_INT32"}}}, {"name": "StatefulPartitionedCall/functional_1/time_distributed_1/Cast_11/ReadVariableOp", "op": "Const", "attr": {"value": {"tensor": {"dtype": "DT_FLOAT", "tensorShape": {"dim": [{"size": "128"}, {"size": "199"}]}}}, "dtype": {"type": "DT_FLOAT"}}}, {"name": "StatefulPartitionedCall/functional_1/time_distributed_1/BiasAdd_11/ReadVariableOp", "op": "Const", "attr": {"value": {"tensor": {"dtype": "DT_FLOAT", "tensorShape": {"dim": [{"size": "199"}]}}}, "dtype": {"type": "DT_FLOAT"}}}, {"name": "StatefulPartitionedCall/functional_1/time_distributed_1/strided_slice_13/stack", "op": "Const", "attr": {"value": {"tensor": {"dtype": "DT_INT32", "tensorShape": {"dim": [{"size": "1"}]}}}, "dtype": {"type": "DT_INT32"}}}, {"name": "StatefulPartitionedCall/functional_1/time_distributed_1/strided_slice_13/stack_1", "op": "Const", "attr": {"value": {"tensor": {"dtype": "DT_INT32", "tensorShape": {"dim": [{"size": "1"}]}}}, "dtype": {"type": "DT_INT32"}}}, {"name": "StatefulPartitionedCall/functional_1/time_distributed_1/strided_slice_13/stack_2", "op": "Const", "attr": {"value": {"tensor": {"dtype": "DT_INT32", "tensorShape": {"dim": [{"size": "1"}]}}}, "dtype": {"type": "DT_INT32"}}}, {"name": "StatefulPartitionedCall/functional_1/time_distributed_1/Cast_12/ReadVariableOp", "op": "Const", "attr": {"value": {"tensor": {"dtype": "DT_FLOAT", "tensorShape": {"dim": [{"size": "128"}, {"size": "199"}]}}}, "dtype": {"type": "DT_FLOAT"}}}, {"name": "StatefulPartitionedCall/functional_1/time_distributed_1/BiasAdd_12/ReadVariableOp", "op": "Const", "attr": {"value": {"tensor": {"dtype": "DT_FLOAT", "tensorShape": {"dim": [{"size": "199"}]}}}, "dtype": {"type": "DT_FLOAT"}}}, {"name": "StatefulPartitionedCall/functional_1/time_distributed_1/strided_slice_14/stack", "op": "Const", "attr": {"value": {"tensor": {"dtype": "DT_INT32", "tensorShape": {"dim": [{"size": "1"}]}}}, "dtype": {"type": "DT_INT32"}}}, {"name": "StatefulPartitionedCall/functional_1/time_distributed_1/strided_slice_14/stack_1", "op": "Const", "attr": {"value": {"tensor": {"dtype": "DT_INT32", "tensorShape": {"dim": [{"size": "1"}]}}}, "dtype": {"type": "DT_INT32"}}}, {"name": "StatefulPartitionedCall/functional_1/time_distributed_1/strided_slice_14/stack_2", "op": "Const", "attr": {"value": {"tensor": {"dtype": "DT_INT32", "tensorShape": {"dim": [{"size": "1"}]}}}, "dtype": {"type": "DT_INT32"}}}, {"name": "StatefulPartitionedCall/functional_1/time_distributed_1/Cast_13/ReadVariableOp", "op": "Const", "attr": {"value": {"tensor": {"dtype": "DT_FLOAT", "tensorShape": {"dim": [{"size": "128"}, {"size": "199"}]}}}, "dtype": {"type": "DT_FLOAT"}}}, {"name": "StatefulPartitionedCall/functional_1/time_distributed_1/BiasAdd_13/ReadVariableOp", "op": "Const", "attr": {"value": {"tensor": {"dtype": "DT_FLOAT", "tensorShape": {"dim": [{"size": "199"}]}}}, "dtype": {"type": "DT_FLOAT"}}}, {"name": "StatefulPartitionedCall/functional_1/time_distributed_1/strided_slice_15/stack", "op": "Const", "attr": {"value": {"tensor": {"dtype": "DT_INT32", "tensorShape": {"dim": [{"size": "1"}]}}}, "dtype": {"type": "DT_INT32"}}}, {"name": "StatefulPartitionedCall/functional_1/time_distributed_1/strided_slice_15/stack_1", "op": "Const", "attr": {"value": {"tensor": {"dtype": "DT_INT32", "tensorShape": {"dim": [{"size": "1"}]}}}, "dtype": {"type": "DT_INT32"}}}, {"name": "StatefulPartitionedCall/functional_1/time_distributed_1/strided_slice_15/stack_2", "op": "Const", "attr": {"value": {"tensor": {"dtype": "DT_INT32", "tensorShape": {"dim": [{"size": "1"}]}}}, "dtype": {"type": "DT_INT32"}}}, {"name": "StatefulPartitionedCall/functional_1/time_distributed_1/Cast_14/ReadVariableOp", "op": "Const", "attr": {"value": {"tensor": {"dtype": "DT_FLOAT", "tensorShape": {"dim": [{"size": "128"}, {"size": "199"}]}}}, "dtype": {"type": "DT_FLOAT"}}}, {"name": "StatefulPartitionedCall/functional_1/time_distributed_1/BiasAdd_14/ReadVariableOp", "op": "Const", "attr": {"value": {"tensor": {"dtype": "DT_FLOAT", "tensorShape": {"dim": [{"size": "199"}]}}}, "dtype": {"type": "DT_FLOAT"}}}, {"name": "StatefulPartitionedCall/functional_1/time_distributed_1/strided_slice_16/stack", "op": "Const", "attr": {"value": {"tensor": {"dtype": "DT_INT32", "tensorShape": {"dim": [{"size": "1"}]}}}, "dtype": {"type": "DT_INT32"}}}, {"name": "StatefulPartitionedCall/functional_1/time_distributed_1/strided_slice_16/stack_1", "op": "Const", "attr": {"value": {"tensor": {"dtype": "DT_INT32", "tensorShape": {"dim": [{"size": "1"}]}}}, "dtype": {"type": "DT_INT32"}}}, {"name": "StatefulPartitionedCall/functional_1/time_distributed_1/strided_slice_16/stack_2", "op": "Const", "attr": {"value": {"tensor": {"dtype": "DT_INT32", "tensorShape": {"dim": [{"size": "1"}]}}}, "dtype": {"type": "DT_INT32"}}}, {"name": "StatefulPartitionedCall/functional_1/time_distributed_1/Cast_15/ReadVariableOp", "op": "Const", "attr": {"value": {"tensor": {"dtype": "DT_FLOAT", "tensorShape": {"dim": [{"size": "128"}, {"size": "199"}]}}}, "dtype": {"type": "DT_FLOAT"}}}, {"name": "StatefulPartitionedCall/functional_1/time_distributed_1/BiasAdd_15/ReadVariableOp", "op": "Const", "attr": {"value": {"tensor": {"dtype": "DT_FLOAT", "tensorShape": {"dim": [{"size": "199"}]}}}, "dtype": {"type": "DT_FLOAT"}}}, {"name": "StatefulPartitionedCall/functional_1/time_distributed_1/strided_slice_17/stack", "op": "Const", "attr": {"value": {"tensor": {"dtype": "DT_INT32", "tensorShape": {"dim": [{"size": "1"}]}}}, "dtype": {"type": "DT_INT32"}}}, {"name": "StatefulPartitionedCall/functional_1/time_distributed_1/strided_slice_17/stack_1", "op": "Const", "attr": {"value": {"tensor": {"dtype": "DT_INT32", "tensorShape": {"dim": [{"size": "1"}]}}}, "dtype": {"type": "DT_INT32"}}}, {"name": "StatefulPartitionedCall/functional_1/time_distributed_1/strided_slice_17/stack_2", "op": "Const", "attr": {"value": {"tensor": {"dtype": "DT_INT32", "tensorShape": {"dim": [{"size": "1"}]}}}, "dtype": {"type": "DT_INT32"}}}, {"name": "StatefulPartitionedCall/functional_1/time_distributed_1/Cast_16/ReadVariableOp", "op": "Const", "attr": {"value": {"tensor": {"dtype": "DT_FLOAT", "tensorShape": {"dim": [{"size": "128"}, {"size": "199"}]}}}, "dtype": {"type": "DT_FLOAT"}}}, {"name": "StatefulPartitionedCall/functional_1/time_distributed_1/BiasAdd_16/ReadVariableOp", "op": "Const", "attr": {"value": {"tensor": {"dtype": "DT_FLOAT", "tensorShape": {"dim": [{"size": "199"}]}}}, "dtype": {"type": "DT_FLOAT"}}}, {"name": "StatefulPartitionedCall/functional_1/time_distributed_1/strided_slice_18/stack", "op": "Const", "attr": {"value": {"tensor": {"dtype": "DT_INT32", "tensorShape": {"dim": [{"size": "1"}]}}}, "dtype": {"type": "DT_INT32"}}}, {"name": "StatefulPartitionedCall/functional_1/time_distributed_1/strided_slice_18/stack_1", "op": "Const", "attr": {"value": {"tensor": {"dtype": "DT_INT32", "tensorShape": {"dim": [{"size": "1"}]}}}, "dtype": {"type": "DT_INT32"}}}, {"name": "StatefulPartitionedCall/functional_1/time_distributed_1/strided_slice_18/stack_2", "op": "Const", "attr": {"value": {"tensor": {"dtype": "DT_INT32", "tensorShape": {"dim": [{"size": "1"}]}}}, "dtype": {"type": "DT_INT32"}}}, {"name": "StatefulPartitionedCall/functional_1/time_distributed_1/Cast_17/ReadVariableOp", "op": "Const", "attr": {"value": {"tensor": {"dtype": "DT_FLOAT", "tensorShape": {"dim": [{"size": "128"}, {"size": "199"}]}}}, "dtype": {"type": "DT_FLOAT"}}}, {"name": "StatefulPartitionedCall/functional_1/time_distributed_1/BiasAdd_17/ReadVariableOp", "op": "Const", "attr": {"value": {"tensor": {"dtype": "DT_FLOAT", "tensorShape": {"dim": [{"size": "199"}]}}}, "dtype": {"type": "DT_FLOAT"}}}, {"name": "StatefulPartitionedCall/functional_1/time_distributed_1/strided_slice_19/stack", "op": "Const", "attr": {"value": {"tensor": {"dtype": "DT_INT32", "tensorShape": {"dim": [{"size": "1"}]}}}, "dtype": {"type": "DT_INT32"}}}, {"name": "StatefulPartitionedCall/functional_1/time_distributed_1/strided_slice_19/stack_1", "op": "Const", "attr": {"value": {"tensor": {"dtype": "DT_INT32", "tensorShape": {"dim": [{"size": "1"}]}}}, "dtype": {"type": "DT_INT32"}}}, {"name": "StatefulPartitionedCall/functional_1/time_distributed_1/strided_slice_19/stack_2", "op": "Const", "attr": {"value": {"tensor": {"dtype": "DT_INT32", "tensorShape": {"dim": [{"size": "1"}]}}}, "dtype": {"type": "DT_INT32"}}}, {"name": "StatefulPartitionedCall/functional_1/time_distributed_1/Cast_18/ReadVariableOp", "op": "Const", "attr": {"value": {"tensor": {"dtype": "DT_FLOAT", "tensorShape": {"dim": [{"size": "128"}, {"size": "199"}]}}}, "dtype": {"type": "DT_FLOAT"}}}, {"name": "StatefulPartitionedCall/functional_1/time_distributed_1/BiasAdd_18/ReadVariableOp", "op": "Const", "attr": {"value": {"tensor": {"dtype": "DT_FLOAT", "tensorShape": {"dim": [{"size": "199"}]}}}, "dtype": {"type": "DT_FLOAT"}}}, {"name": "StatefulPartitionedCall/functional_1/time_distributed_1/strided_slice_20/stack", "op": "Const", "attr": {"value": {"tensor": {"dtype": "DT_INT32", "tensorShape": {"dim": [{"size": "1"}]}}}, "dtype": {"type": "DT_INT32"}}}, {"name": "StatefulPartitionedCall/functional_1/time_distributed_1/strided_slice_20/stack_1", "op": "Const", "attr": {"value": {"tensor": {"dtype": "DT_INT32", "tensorShape": {"dim": [{"size": "1"}]}}}, "dtype": {"type": "DT_INT32"}}}, {"name": "StatefulPartitionedCall/functional_1/time_distributed_1/strided_slice_20/stack_2", "op": "Const", "attr": {"value": {"tensor": {"dtype": "DT_INT32", "tensorShape": {"dim": [{"size": "1"}]}}}, "dtype": {"type": "DT_INT32"}}}, {"name": "StatefulPartitionedCall/functional_1/time_distributed_1/Cast_19/ReadVariableOp", "op": "Const", "attr": {"value": {"tensor": {"dtype": "DT_FLOAT", "tensorShape": {"dim": [{"size": "128"}, {"size": "199"}]}}}, "dtype": {"type": "DT_FLOAT"}}}, {"name": "StatefulPartitionedCall/functional_1/time_distributed_1/BiasAdd_19/ReadVariableOp", "op": "Const", "attr": {"value": {"tensor": {"dtype": "DT_FLOAT", "tensorShape": {"dim": [{"size": "199"}]}}}, "dtype": {"type": "DT_FLOAT"}}}, {"name": "StatefulPartitionedCall/functional_1/time_distributed_1/strided_slice_21/stack", "op": "Const", "attr": {"value": {"tensor": {"dtype": "DT_INT32", "tensorShape": {"dim": [{"size": "1"}]}}}, "dtype": {"type": "DT_INT32"}}}, {"name": "StatefulPartitionedCall/functional_1/time_distributed_1/strided_slice_21/stack_1", "op": "Const", "attr": {"value": {"tensor": {"dtype": "DT_INT32", "tensorShape": {"dim": [{"size": "1"}]}}}, "dtype": {"type": "DT_INT32"}}}, {"name": "StatefulPartitionedCall/functional_1/time_distributed_1/strided_slice_21/stack_2", "op": "Const", "attr": {"value": {"tensor": {"dtype": "DT_INT32", "tensorShape": {"dim": [{"size": "1"}]}}}, "dtype": {"type": "DT_INT32"}}}, {"name": "StatefulPartitionedCall/functional_1/time_distributed_1/Cast_20/ReadVariableOp", "op": "Const", "attr": {"value": {"tensor": {"dtype": "DT_FLOAT", "tensorShape": {"dim": [{"size": "128"}, {"size": "199"}]}}}, "dtype": {"type": "DT_FLOAT"}}}, {"name": "StatefulPartitionedCall/functional_1/time_distributed_1/BiasAdd_20/ReadVariableOp", "op": "Const", "attr": {"value": {"tensor": {"dtype": "DT_FLOAT", "tensorShape": {"dim": [{"size": "199"}]}}}, "dtype": {"type": "DT_FLOAT"}}}, {"name": "StatefulPartitionedCall/functional_1/time_distributed_1/strided_slice_22/stack", "op": "Const", "attr": {"value": {"tensor": {"dtype": "DT_INT32", "tensorShape": {"dim": [{"size": "1"}]}}}, "dtype": {"type": "DT_INT32"}}}, {"name": "StatefulPartitionedCall/functional_1/time_distributed_1/strided_slice_22/stack_1", "op": "Const", "attr": {"value": {"tensor": {"dtype": "DT_INT32", "tensorShape": {"dim": [{"size": "1"}]}}}, "dtype": {"type": "DT_INT32"}}}, {"name": "StatefulPartitionedCall/functional_1/time_distributed_1/strided_slice_22/stack_2", "op": "Const", "attr": {"value": {"tensor": {"dtype": "DT_INT32", "tensorShape": {"dim": [{"size": "1"}]}}}, "dtype": {"type": "DT_INT32"}}}, {"name": "StatefulPartitionedCall/functional_1/time_distributed_1/Cast_21/ReadVariableOp", "op": "Const", "attr": {"value": {"tensor": {"dtype": "DT_FLOAT", "tensorShape": {"dim": [{"size": "128"}, {"size": "199"}]}}}, "dtype": {"type": "DT_FLOAT"}}}, {"name": "StatefulPartitionedCall/functional_1/time_distributed_1/BiasAdd_21/ReadVariableOp", "op": "Const", "attr": {"value": {"tensor": {"dtype": "DT_FLOAT", "tensorShape": {"dim": [{"size": "199"}]}}}, "dtype": {"type": "DT_FLOAT"}}}, {"name": "StatefulPartitionedCall/functional_1/time_distributed_1/strided_slice_23/stack", "op": "Const", "attr": {"value": {"tensor": {"dtype": "DT_INT32", "tensorShape": {"dim": [{"size": "1"}]}}}, "dtype": {"type": "DT_INT32"}}}, {"name": "StatefulPartitionedCall/functional_1/time_distributed_1/strided_slice_23/stack_1", "op": "Const", "attr": {"value": {"tensor": {"dtype": "DT_INT32", "tensorShape": {"dim": [{"size": "1"}]}}}, "dtype": {"type": "DT_INT32"}}}, {"name": "StatefulPartitionedCall/functional_1/time_distributed_1/strided_slice_23/stack_2", "op": "Const", "attr": {"value": {"tensor": {"dtype": "DT_INT32", "tensorShape": {"dim": [{"size": "1"}]}}}, "dtype": {"type": "DT_INT32"}}}, {"name": "StatefulPartitionedCall/functional_1/time_distributed_1/Cast_22/ReadVariableOp", "op": "Const", "attr": {"value": {"tensor": {"dtype": "DT_FLOAT", "tensorShape": {"dim": [{"size": "128"}, {"size": "199"}]}}}, "dtype": {"type": "DT_FLOAT"}}}, {"name": "StatefulPartitionedCall/functional_1/time_distributed_1/BiasAdd_22/ReadVariableOp", "op": "Const", "attr": {"value": {"tensor": {"dtype": "DT_FLOAT", "tensorShape": {"dim": [{"size": "199"}]}}}, "dtype": {"type": "DT_FLOAT"}}}, {"name": "StatefulPartitionedCall/functional_1/time_distributed_1/strided_slice_24/stack", "op": "Const", "attr": {"value": {"tensor": {"dtype": "DT_INT32", "tensorShape": {"dim": [{"size": "1"}]}}}, "dtype": {"type": "DT_INT32"}}}, {"name": "StatefulPartitionedCall/functional_1/time_distributed_1/strided_slice_24/stack_1", "op": "Const", "attr": {"value": {"tensor": {"dtype": "DT_INT32", "tensorShape": {"dim": [{"size": "1"}]}}}, "dtype": {"type": "DT_INT32"}}}, {"name": "StatefulPartitionedCall/functional_1/time_distributed_1/strided_slice_24/stack_2", "op": "Const", "attr": {"value": {"tensor": {"dtype": "DT_INT32", "tensorShape": {"dim": [{"size": "1"}]}}}, "dtype": {"type": "DT_INT32"}}}, {"name": "StatefulPartitionedCall/functional_1/time_distributed_1/Cast_23/ReadVariableOp", "op": "Const", "attr": {"value": {"tensor": {"dtype": "DT_FLOAT", "tensorShape": {"dim": [{"size": "128"}, {"size": "199"}]}}}, "dtype": {"type": "DT_FLOAT"}}}, {"name": "StatefulPartitionedCall/functional_1/time_distributed_1/BiasAdd_23/ReadVariableOp", "op": "Const", "attr": {"value": {"tensor": {"dtype": "DT_FLOAT", "tensorShape": {"dim": [{"size": "199"}]}}}, "dtype": {"type": "DT_FLOAT"}}}, {"name": "StatefulPartitionedCall/functional_1/time_distributed_1/strided_slice_25/stack", "op": "Const", "attr": {"value": {"tensor": {"dtype": "DT_INT32", "tensorShape": {"dim": [{"size": "1"}]}}}, "dtype": {"type": "DT_INT32"}}}, {"name": "StatefulPartitionedCall/functional_1/time_distributed_1/strided_slice_25/stack_1", "op": "Const", "attr": {"value": {"tensor": {"dtype": "DT_INT32", "tensorShape": {"dim": [{"size": "1"}]}}}, "dtype": {"type": "DT_INT32"}}}, {"name": "StatefulPartitionedCall/functional_1/time_distributed_1/strided_slice_25/stack_2", "op": "Const", "attr": {"value": {"tensor": {"dtype": "DT_INT32", "tensorShape": {"dim": [{"size": "1"}]}}}, "dtype": {"type": "DT_INT32"}}}, {"name": "StatefulPartitionedCall/functional_1/time_distributed_1/Cast_24/ReadVariableOp", "op": "Const", "attr": {"value": {"tensor": {"dtype": "DT_FLOAT", "tensorShape": {"dim": [{"size": "128"}, {"size": "199"}]}}}, "dtype": {"type": "DT_FLOAT"}}}, {"name": "StatefulPartitionedCall/functional_1/time_distributed_1/BiasAdd_24/ReadVariableOp", "op": "Const", "attr": {"value": {"tensor": {"dtype": "DT_FLOAT", "tensorShape": {"dim": [{"size": "199"}]}}}, "dtype": {"type": "DT_FLOAT"}}}, {"name": "StatefulPartitionedCall/functional_1/time_distributed_1/strided_slice_26/stack", "op": "Const", "attr": {"value": {"tensor": {"dtype": "DT_INT32", "tensorShape": {"dim": [{"size": "1"}]}}}, "dtype": {"type": "DT_INT32"}}}, {"name": "StatefulPartitionedCall/functional_1/time_distributed_1/strided_slice_26/stack_1", "op": "Const", "attr": {"value": {"tensor": {"dtype": "DT_INT32", "tensorShape": {"dim": [{"size": "1"}]}}}, "dtype": {"type": "DT_INT32"}}}, {"name": "StatefulPartitionedCall/functional_1/time_distributed_1/strided_slice_26/stack_2", "op": "Const", "attr": {"value": {"tensor": {"dtype": "DT_INT32", "tensorShape": {"dim": [{"size": "1"}]}}}, "dtype": {"type": "DT_INT32"}}}, {"name": "StatefulPartitionedCall/functional_1/time_distributed_1/Cast_25/ReadVariableOp", "op": "Const", "attr": {"value": {"tensor": {"dtype": "DT_FLOAT", "tensorShape": {"dim": [{"size": "128"}, {"size": "199"}]}}}, "dtype": {"type": "DT_FLOAT"}}}, {"name": "StatefulPartitionedCall/functional_1/time_distributed_1/BiasAdd_25/ReadVariableOp", "op": "Const", "attr": {"value": {"tensor": {"dtype": "DT_FLOAT", "tensorShape": {"dim": [{"size": "199"}]}}}, "dtype": {"type": "DT_FLOAT"}}}, {"name": "StatefulPartitionedCall/functional_1/time_distributed_1/strided_slice_27/stack", "op": "Const", "attr": {"value": {"tensor": {"dtype": "DT_INT32", "tensorShape": {"dim": [{"size": "1"}]}}}, "dtype": {"type": "DT_INT32"}}}, {"name": "StatefulPartitionedCall/functional_1/time_distributed_1/strided_slice_27/stack_1", "op": "Const", "attr": {"value": {"tensor": {"dtype": "DT_INT32", "tensorShape": {"dim": [{"size": "1"}]}}}, "dtype": {"type": "DT_INT32"}}}, {"name": "StatefulPartitionedCall/functional_1/time_distributed_1/strided_slice_27/stack_2", "op": "Const", "attr": {"value": {"tensor": {"dtype": "DT_INT32", "tensorShape": {"dim": [{"size": "1"}]}}}, "dtype": {"type": "DT_INT32"}}}, {"name": "StatefulPartitionedCall/functional_1/time_distributed_1/Cast_26/ReadVariableOp", "op": "Const", "attr": {"value": {"tensor": {"dtype": "DT_FLOAT", "tensorShape": {"dim": [{"size": "128"}, {"size": "199"}]}}}, "dtype": {"type": "DT_FLOAT"}}}, {"name": "StatefulPartitionedCall/functional_1/time_distributed_1/BiasAdd_26/ReadVariableOp", "op": "Const", "attr": {"value": {"tensor": {"dtype": "DT_FLOAT", "tensorShape": {"dim": [{"size": "199"}]}}}, "dtype": {"type": "DT_FLOAT"}}}, {"name": "StatefulPartitionedCall/functional_1/time_distributed_1/strided_slice_28/stack", "op": "Const", "attr": {"value": {"tensor": {"dtype": "DT_INT32", "tensorShape": {"dim": [{"size": "1"}]}}}, "dtype": {"type": "DT_INT32"}}}, {"name": "StatefulPartitionedCall/functional_1/time_distributed_1/strided_slice_28/stack_1", "op": "Const", "attr": {"value": {"tensor": {"dtype": "DT_INT32", "tensorShape": {"dim": [{"size": "1"}]}}}, "dtype": {"type": "DT_INT32"}}}, {"name": "StatefulPartitionedCall/functional_1/time_distributed_1/strided_slice_28/stack_2", "op": "Const", "attr": {"value": {"tensor": {"dtype": "DT_INT32", "tensorShape": {"dim": [{"size": "1"}]}}}, "dtype": {"type": "DT_INT32"}}}, {"name": "StatefulPartitionedCall/functional_1/time_distributed_1/Cast_27/ReadVariableOp", "op": "Const", "attr": {"value": {"tensor": {"dtype": "DT_FLOAT", "tensorShape": {"dim": [{"size": "128"}, {"size": "199"}]}}}, "dtype": {"type": "DT_FLOAT"}}}, {"name": "StatefulPartitionedCall/functional_1/time_distributed_1/BiasAdd_27/ReadVariableOp", "op": "Const", "attr": {"value": {"tensor": {"dtype": "DT_FLOAT", "tensorShape": {"dim": [{"size": "199"}]}}}, "dtype": {"type": "DT_FLOAT"}}}, {"name": "StatefulPartitionedCall/functional_1/time_distributed_1/strided_slice_29/stack", "op": "Const", "attr": {"value": {"tensor": {"dtype": "DT_INT32", "tensorShape": {"dim": [{"size": "1"}]}}}, "dtype": {"type": "DT_INT32"}}}, {"name": "StatefulPartitionedCall/functional_1/time_distributed_1/strided_slice_29/stack_1", "op": "Const", "attr": {"value": {"tensor": {"dtype": "DT_INT32", "tensorShape": {"dim": [{"size": "1"}]}}}, "dtype": {"type": "DT_INT32"}}}, {"name": "StatefulPartitionedCall/functional_1/time_distributed_1/strided_slice_29/stack_2", "op": "Const", "attr": {"value": {"tensor": {"dtype": "DT_INT32", "tensorShape": {"dim": [{"size": "1"}]}}}, "dtype": {"type": "DT_INT32"}}}, {"name": "StatefulPartitionedCall/functional_1/time_distributed_1/Cast_28/ReadVariableOp", "op": "Const", "attr": {"value": {"tensor": {"dtype": "DT_FLOAT", "tensorShape": {"dim": [{"size": "128"}, {"size": "199"}]}}}, "dtype": {"type": "DT_FLOAT"}}}, {"name": "StatefulPartitionedCall/functional_1/time_distributed_1/BiasAdd_28/ReadVariableOp", "op": "Const", "attr": {"value": {"tensor": {"dtype": "DT_FLOAT", "tensorShape": {"dim": [{"size": "199"}]}}}, "dtype": {"type": "DT_FLOAT"}}}, {"name": "StatefulPartitionedCall/functional_1/lstm_2_1/while/loop_counter", "op": "Const", "attr": {"value": {"tensor": {"dtype": "DT_INT32", "tensorShape": {}}}, "dtype": {"type": "DT_INT32"}}}, {"name": "StatefulPartitionedCall/functional_1/lstm_2_1/Max", "op": "Const", "attr": {"value": {"tensor": {"dtype": "DT_INT32", "tensorShape": {}}}, "dtype": {"type": "DT_INT32"}}}, {"name": "StatefulPartitionedCall/functional_1/lstm_2_1/time", "op": "Const", "attr": {"value": {"tensor": {"dtype": "DT_INT32", "tensorShape": {}}}, "dtype": {"type": "DT_INT32"}}}, {"name": "StatefulPartitionedCall/functional_1/lstm_2_1/TensorArrayV2_1/element_shape", "op": "Const", "attr": {"value": {"tensor": {"dtype": "DT_INT32", "tensorShape": {"dim": [{"size": "2"}]}}}, "dtype": {"type": "DT_INT32"}}}, {"name": "StatefulPartitionedCall/functional_1/lstm_2_1/TensorArrayV2_1/num_elements", "op": "Const", "attr": {"value": {"tensor": {"dtype": "DT_INT32", "tensorShape": {}}}, "dtype": {"type": "DT_INT32"}}}, {"name": "StatefulPartitionedCall/functional_1/lstm_2_1/zeros/packed/1", "op": "Const", "attr": {"value": {"tensor": {"dtype": "DT_INT32", "tensorShape": {}}}, "dtype": {"type": "DT_INT32"}}}, {"name": "StatefulPartitionedCall/functional_1/lstm_2_1/zeros/Const", "op": "Const", "attr": {"value": {"tensor": {"dtype": "DT_FLOAT", "tensorShape": {}}}, "dtype": {"type": "DT_FLOAT"}}}, {"name": "StatefulPartitionedCall/functional_1/lstm_2_1/strided_slice/stack", "op": "Const", "attr": {"value": {"tensor": {"dtype": "DT_INT32", "tensorShape": {"dim": [{"size": "1"}]}}}, "dtype": {"type": "DT_INT32"}}}, {"name": "StatefulPartitionedCall/functional_1/lstm_2_1/strided_slice/stack_1", "op": "Const", "attr": {"value": {"tensor": {"dtype": "DT_INT32", "tensorShape": {"dim": [{"size": "1"}]}}}, "dtype": {"type": "DT_INT32"}}}, {"name": "StatefulPartitionedCall/functional_1/lstm_2_1/strided_slice/stack_2", "op": "Const", "attr": {"value": {"tensor": {"dtype": "DT_INT32", "tensorShape": {"dim": [{"size": "1"}]}}}, "dtype": {"type": "DT_INT32"}}}, {"name": "StatefulPartitionedCall/functional_1/lstm_2_1/zeros_1/packed/1", "op": "Const", "attr": {"value": {"tensor": {"dtype": "DT_INT32", "tensorShape": {}}}, "dtype": {"type": "DT_INT32"}}}, {"name": "StatefulPartitionedCall/functional_1/lstm_2_1/zeros_1/Const", "op": "Const", "attr": {"value": {"tensor": {"dtype": "DT_FLOAT", "tensorShape": {}}}, "dtype": {"type": "DT_FLOAT"}}}, {"name": "StatefulPartitionedCall/functional_1/repeat_vector_1/Repeat/ExpandDims/dim", "op": "Const", "attr": {"value": {"tensor": {"dtype": "DT_INT32", "tensorShape": {}}}, "dtype": {"type": "DT_INT32"}}}, {"name": "StatefulPartitionedCall/functional_1/repeat_vector_1/Repeat/Tile/multiples", "op": "Const", "attr": {"value": {"tensor": {"dtype": "DT_INT32", "tensorShape": {"dim": [{"size": "4"}]}}}, "dtype": {"type": "DT_INT32"}}}, {"name": "StatefulPartitionedCall/functional_1/repeat_vector_1/Repeat/strided_slice/stack", "op": "Const", "attr": {"value": {"tensor": {"dtype": "DT_INT32", "tensorShape": {"dim": [{"size": "1"}]}}}, "dtype": {"type": "DT_INT32"}}}, {"name": "StatefulPartitionedCall/functional_1/repeat_vector_1/Repeat/strided_slice/stack_1", "op": "Const", "attr": {"value": {"tensor": {"dtype": "DT_INT32", "tensorShape": {"dim": [{"size": "1"}]}}}, "dtype": {"type": "DT_INT32"}}}, {"name": "StatefulPartitionedCall/functional_1/repeat_vector_1/Repeat/strided_slice/stack_2", "op": "Const", "attr": {"value": {"tensor": {"dtype": "DT_INT32", "tensorShape": {"dim": [{"size": "1"}]}}}, "dtype": {"type": "DT_INT32"}}}, {"name": "StatefulPartitionedCall/functional_1/repeat_vector_1/Repeat/Reshape", "op": "Const", "attr": {"value": {"tensor": {"dtype": "DT_INT32", "tensorShape": {}}}, "dtype": {"type": "DT_INT32"}}}, {"name": "StatefulPartitionedCall/functional_1/repeat_vector_1/Repeat/strided_slice_1/stack", "op": "Const", "attr": {"value": {"tensor": {"dtype": "DT_INT32", "tensorShape": {"dim": [{"size": "1"}]}}}, "dtype": {"type": "DT_INT32"}}}, {"name": "StatefulPartitionedCall/functional_1/repeat_vector_1/Repeat/strided_slice_1/stack_1", "op": "Const", "attr": {"value": {"tensor": {"dtype": "DT_INT32", "tensorShape": {"dim": [{"size": "1"}]}}}, "dtype": {"type": "DT_INT32"}}}, {"name": "StatefulPartitionedCall/functional_1/repeat_vector_1/Repeat/strided_slice_1/stack_2", "op": "Const", "attr": {"value": {"tensor": {"dtype": "DT_INT32", "tensorShape": {"dim": [{"size": "1"}]}}}, "dtype": {"type": "DT_INT32"}}}, {"name": "StatefulPartitionedCall/functional_1/lstm_1_2/while/loop_counter", "op": "Const", "attr": {"value": {"tensor": {"dtype": "DT_INT32", "tensorShape": {}}}, "dtype": {"type": "DT_INT32"}}}, {"name": "StatefulPartitionedCall/functional_1/lstm_1_2/Max", "op": "Const", "attr": {"value": {"tensor": {"dtype": "DT_INT32", "tensorShape": {}}}, "dtype": {"type": "DT_INT32"}}}, {"name": "StatefulPartitionedCall/functional_1/lstm_1_2/time", "op": "Const", "attr": {"value": {"tensor": {"dtype": "DT_INT32", "tensorShape": {}}}, "dtype": {"type": "DT_INT32"}}}, {"name": "StatefulPartitionedCall/functional_1/lstm_1_2/TensorArrayV2_1/element_shape", "op": "Const", "attr": {"value": {"tensor": {"dtype": "DT_INT32", "tensorShape": {"dim": [{"size": "2"}]}}}, "dtype": {"type": "DT_INT32"}}}, {"name": "StatefulPartitionedCall/functional_1/lstm_1_2/TensorArrayV2_1/num_elements", "op": "Const", "attr": {"value": {"tensor": {"dtype": "DT_INT32", "tensorShape": {}}}, "dtype": {"type": "DT_INT32"}}}, {"name": "StatefulPartitionedCall/functional_1/lstm_1_2/zeros/packed/1", "op": "Const", "attr": {"value": {"tensor": {"dtype": "DT_INT32", "tensorShape": {}}}, "dtype": {"type": "DT_INT32"}}}, {"name": "StatefulPartitionedCall/functional_1/lstm_1_2/zeros/Const", "op": "Const", "attr": {"value": {"tensor": {"dtype": "DT_FLOAT", "tensorShape": {}}}, "dtype": {"type": "DT_FLOAT"}}}, {"name": "StatefulPartitionedCall/functional_1/lstm_1/transpose_1/perm", "op": "Const", "attr": {"value": {"tensor": {"dtype": "DT_INT32", "tensorShape": {"dim": [{"size": "3"}]}}}, "dtype": {"type": "DT_INT32"}}}, {"name": "StatefulPartitionedCall/functional_1/lstm_1_2/strided_slice/stack", "op": "Const", "attr": {"value": {"tensor": {"dtype": "DT_INT32", "tensorShape": {"dim": [{"size": "1"}]}}}, "dtype": {"type": "DT_INT32"}}}, {"name": "StatefulPartitionedCall/functional_1/lstm_1_2/strided_slice/stack_1", "op": "Const", "attr": {"value": {"tensor": {"dtype": "DT_INT32", "tensorShape": {"dim": [{"size": "1"}]}}}, "dtype": {"type": "DT_INT32"}}}, {"name": "StatefulPartitionedCall/functional_1/lstm_1_2/strided_slice/stack_2", "op": "Const", "attr": {"value": {"tensor": {"dtype": "DT_INT32", "tensorShape": {"dim": [{"size": "1"}]}}}, "dtype": {"type": "DT_INT32"}}}, {"name": "StatefulPartitionedCall/functional_1/lstm_1_2/zeros_1/packed/1", "op": "Const", "attr": {"value": {"tensor": {"dtype": "DT_INT32", "tensorShape": {}}}, "dtype": {"type": "DT_INT32"}}}, {"name": "StatefulPartitionedCall/functional_1/lstm_1_2/zeros_1/Const", "op": "Const", "attr": {"value": {"tensor": {"dtype": "DT_FLOAT", "tensorShape": {}}}, "dtype": {"type": "DT_FLOAT"}}}, {"name": "StatefulPartitionedCall/functional_1/lstm_1/while/loop_counter", "op": "Const", "attr": {"value": {"tensor": {"dtype": "DT_INT32", "tensorShape": {}}}, "dtype": {"type": "DT_INT32"}}}, {"name": "StatefulPartitionedCall/functional_1/lstm_1/Max", "op": "Const", "attr": {"value": {"tensor": {"dtype": "DT_INT32", "tensorShape": {}}}, "dtype": {"type": "DT_INT32"}}}, {"name": "StatefulPartitionedCall/functional_1/lstm_1/time", "op": "Const", "attr": {"value": {"tensor": {"dtype": "DT_INT32", "tensorShape": {}}}, "dtype": {"type": "DT_INT32"}}}, {"name": "StatefulPartitionedCall/functional_1/lstm_1/TensorArrayV2_1/element_shape", "op": "Const", "attr": {"value": {"tensor": {"dtype": "DT_INT32", "tensorShape": {"dim": [{"size": "2"}]}}}, "dtype": {"type": "DT_INT32"}}}, {"name": "StatefulPartitionedCall/functional_1/lstm_1/TensorArrayV2_1/num_elements", "op": "Const", "attr": {"value": {"tensor": {"dtype": "DT_INT32", "tensorShape": {}}}, "dtype": {"type": "DT_INT32"}}}, {"name": "StatefulPartitionedCall/functional_1/lstm_1/zeros/packed/1", "op": "Const", "attr": {"value": {"tensor": {"dtype": "DT_INT32", "tensorShape": {}}}, "dtype": {"type": "DT_INT32"}}}, {"name": "StatefulPartitionedCall/functional_1/lstm_1/zeros/Const", "op": "Const", "attr": {"value": {"tensor": {"dtype": "DT_FLOAT", "tensorShape": {}}}, "dtype": {"type": "DT_FLOAT"}}}, {"name": "StatefulPartitionedCall/functional_1/lstm_1/strided_slice/stack", "op": "Const", "attr": {"value": {"tensor": {"dtype": "DT_INT32", "tensorShape": {"dim": [{"size": "1"}]}}}, "dtype": {"type": "DT_INT32"}}}, {"name": "StatefulPartitionedCall/functional_1/lstm_1/strided_slice/stack_1", "op": "Const", "attr": {"value": {"tensor": {"dtype": "DT_INT32", "tensorShape": {"dim": [{"size": "1"}]}}}, "dtype": {"type": "DT_INT32"}}}, {"name": "StatefulPartitionedCall/functional_1/lstm_1/strided_slice/stack_2", "op": "Const", "attr": {"value": {"tensor": {"dtype": "DT_INT32", "tensorShape": {"dim": [{"size": "1"}]}}}, "dtype": {"type": "DT_INT32"}}}, {"name": "StatefulPartitionedCall/functional_1/lstm_1/zeros_1/packed/1", "op": "Const", "attr": {"value": {"tensor": {"dtype": "DT_INT32", "tensorShape": {}}}, "dtype": {"type": "DT_INT32"}}}, {"name": "StatefulPartitionedCall/functional_1/lstm_1/zeros_1/Const", "op": "Const", "attr": {"value": {"tensor": {"dtype": "DT_FLOAT", "tensorShape": {}}}, "dtype": {"type": "DT_FLOAT"}}}, {"name": "StatefulPartitionedCall/functional_1/lstm_1/transpose/perm", "op": "Const", "attr": {"value": {"tensor": {"dtype": "DT_INT32", "tensorShape": {"dim": [{"size": "3"}]}}}, "dtype": {"type": "DT_INT32"}}}, {"name": "StatefulPartitionedCall/functional_1/lstm_1/TensorArrayUnstack/TensorListFromTensor/element_shape", "op": "Const", "attr": {"value": {"tensor": {"dtype": "DT_INT32", "tensorShape": {"dim": [{"size": "2"}]}}}, "dtype": {"type": "DT_INT32"}}}, {"name": "unknown", "op": "Const", "attr": {"value": {"tensor": {"dtype": "DT_FLOAT", "tensorShape": {"dim": [{"size": "199"}, {"size": "512"}]}}}, "dtype": {"type": "DT_FLOAT"}}}, {"name": "unknown_0", "op": "Const", "attr": {"value": {"tensor": {"dtype": "DT_FLOAT", "tensorShape": {"dim": [{"size": "128"}, {"size": "512"}]}}}, "dtype": {"type": "DT_FLOAT"}}}, {"name": "unknown_1", "op": "Const", "attr": {"value": {"tensor": {"dtype": "DT_FLOAT", "tensorShape": {"dim": [{"size": "512"}]}}}, "dtype": {"type": "DT_FLOAT"}}}, {"name": "StatefulPartitionedCall/functional_1/lstm_1/TensorArrayV2Stack/TensorListStack/element_shape", "op": "Const", "attr": {"value": {"tensor": {"dtype": "DT_INT32", "tensorShape": {"dim": [{"size": "2"}]}}}, "dtype": {"type": "DT_INT32"}}}, {"name": "StatefulPartitionedCall/functional_1/lstm_1_2/TensorArrayUnstack/TensorListFromTensor/element_shape", "op": "Const", "attr": {"value": {"tensor": {"dtype": "DT_INT32", "tensorShape": {"dim": [{"size": "2"}]}}}, "dtype": {"type": "DT_INT32"}}}, {"name": "unknown_2", "op": "Const", "attr": {"value": {"tensor": {"dtype": "DT_FLOAT", "tensorShape": {"dim": [{"size": "128"}, {"size": "256"}]}}}, "dtype": {"type": "DT_FLOAT"}}}, {"name": "unknown_3", "op": "Const", "attr": {"value": {"tensor": {"dtype": "DT_FLOAT", "tensorShape": {"dim": [{"size": "64"}, {"size": "256"}]}}}, "dtype": {"type": "DT_FLOAT"}}}, {"name": "unknown_4", "op": "Const", "attr": {"value": {"tensor": {"dtype": "DT_FLOAT", "tensorShape": {"dim": [{"size": "256"}]}}}, "dtype": {"type": "DT_FLOAT"}}}, {"name": "StatefulPartitionedCall/functional_1/lstm_1_2/TensorArrayV2Stack/TensorListStack/element_shape", "op": "Const", "attr": {"value": {"tensor": {"dtype": "DT_INT32", "tensorShape": {"dim": [{"size": "2"}]}}}, "dtype": {"type": "DT_INT32"}}}, {"name": "StatefulPartitionedCall/functional_1/lstm_1_2/strided_slice_3/stack", "op": "Const", "attr": {"value": {"tensor": {"dtype": "DT_INT32", "tensorShape": {"dim": [{"size": "1"}]}}}, "dtype": {"type": "DT_INT32"}}}, {"name": "StatefulPartitionedCall/functional_1/lstm_1_2/strided_slice_3/stack_1", "op": "Const", "attr": {"value": {"tensor": {"dtype": "DT_INT32", "tensorShape": {"dim": [{"size": "1"}]}}}, "dtype": {"type": "DT_INT32"}}}, {"name": "StatefulPartitionedCall/functional_1/lstm_1_2/strided_slice_3/stack_2", "op": "Const", "attr": {"value": {"tensor": {"dtype": "DT_INT32", "tensorShape": {"dim": [{"size": "1"}]}}}, "dtype": {"type": "DT_INT32"}}}, {"name": "StatefulPartitionedCall/functional_1/repeat_vector_1/strided_slice/stack", "op": "Const", "attr": {"value": {"tensor": {"dtype": "DT_INT32", "tensorShape": {"dim": [{"size": "1"}]}}}, "dtype": {"type": "DT_INT32"}}}, {"name": "StatefulPartitionedCall/functional_1/repeat_vector_1/strided_slice/stack_1", "op": "Const", "attr": {"value": {"tensor": {"dtype": "DT_INT32", "tensorShape": {"dim": [{"size": "1"}]}}}, "dtype": {"type": "DT_INT32"}}}, {"name": "StatefulPartitionedCall/functional_1/repeat_vector_1/strided_slice/stack_2", "op": "Const", "attr": {"value": {"tensor": {"dtype": "DT_INT32", "tensorShape": {"dim": [{"size": "1"}]}}}, "dtype": {"type": "DT_INT32"}}}, {"name": "StatefulPartitionedCall/functional_1/repeat_vector_1/Reshape/shape/1", "op": "Const", "attr": {"value": {"tensor": {"dtype": "DT_INT32", "tensorShape": {}}}, "dtype": {"type": "DT_INT32"}}}, {"name": "StatefulPartitionedCall/functional_1/repeat_vector_1/Reshape/shape/2", "op": "Const", "attr": {"value": {"tensor": {"dtype": "DT_INT32", "tensorShape": {}}}, "dtype": {"type": "DT_INT32"}}}, {"name": "StatefulPartitionedCall/functional_1/repeat_vector_1/Repeat/strided_slice_2/stack", "op": "Const", "attr": {"value": {"tensor": {"dtype": "DT_INT32", "tensorShape": {"dim": [{"size": "1"}]}}}, "dtype": {"type": "DT_INT32"}}}, {"name": "StatefulPartitionedCall/functional_1/repeat_vector_1/Repeat/strided_slice_2/stack_1", "op": "Const", "attr": {"value": {"tensor": {"dtype": "DT_INT32", "tensorShape": {"dim": [{"size": "1"}]}}}, "dtype": {"type": "DT_INT32"}}}, {"name": "StatefulPartitionedCall/functional_1/repeat_vector_1/Repeat/strided_slice_2/stack_2", "op": "Const", "attr": {"value": {"tensor": {"dtype": "DT_INT32", "tensorShape": {"dim": [{"size": "1"}]}}}, "dtype": {"type": "DT_INT32"}}}, {"name": "StatefulPartitionedCall/functional_1/repeat_vector_1/Repeat/concat/axis", "op": "Const", "attr": {"value": {"tensor": {"dtype": "DT_INT32", "tensorShape": {}}}, "dtype": {"type": "DT_INT32"}}}, {"name": "StatefulPartitionedCall/functional_1/lstm_2_1/transpose/perm", "op": "Const", "attr": {"value": {"tensor": {"dtype": "DT_INT32", "tensorShape": {"dim": [{"size": "3"}]}}}, "dtype": {"type": "DT_INT32"}}}, {"name": "StatefulPartitionedCall/functional_1/lstm_2_1/TensorArrayUnstack/TensorListFromTensor/element_shape", "op": "Const", "attr": {"value": {"tensor": {"dtype": "DT_INT32", "tensorShape": {"dim": [{"size": "2"}]}}}, "dtype": {"type": "DT_INT32"}}}, {"name": "unknown_5", "op": "Const", "attr": {"value": {"tensor": {"dtype": "DT_FLOAT", "tensorShape": {"dim": [{"size": "64"}, {"size": "512"}]}}}, "dtype": {"type": "DT_FLOAT"}}}, {"name": "unknown_6", "op": "Const", "attr": {"value": {"tensor": {"dtype": "DT_FLOAT", "tensorShape": {"dim": [{"size": "128"}, {"size": "512"}]}}}, "dtype": {"type": "DT_FLOAT"}}}, {"name": "unknown_7", "op": "Const", "attr": {"value": {"tensor": {"dtype": "DT_FLOAT", "tensorShape": {"dim": [{"size": "512"}]}}}, "dtype": {"type": "DT_FLOAT"}}}, {"name": "StatefulPartitionedCall/functional_1/lstm_2_1/TensorArrayV2Stack/TensorListStack/element_shape", "op": "Const", "attr": {"value": {"tensor": {"dtype": "DT_INT32", "tensorShape": {"dim": [{"size": "2"}]}}}, "dtype": {"type": "DT_INT32"}}}, {"name": "StatefulPartitionedCall/functional_1/time_distributed_1/strided_slice_30/stack", "op": "Const", "attr": {"value": {"tensor": {"dtype": "DT_INT32", "tensorShape": {"dim": [{"size": "1"}]}}}, "dtype": {"type": "DT_INT32"}}}, {"name": "StatefulPartitionedCall/functional_1/time_distributed_1/strided_slice_30/stack_1", "op": "Const", "attr": {"value": {"tensor": {"dtype": "DT_INT32", "tensorShape": {"dim": [{"size": "1"}]}}}, "dtype": {"type": "DT_INT32"}}}, {"name": "StatefulPartitionedCall/functional_1/time_distributed_1/strided_slice_30/stack_2", "op": "Const", "attr": {"value": {"tensor": {"dtype": "DT_INT32", "tensorShape": {"dim": [{"size": "1"}]}}}, "dtype": {"type": "DT_INT32"}}}, {"name": "StatefulPartitionedCall/functional_1/time_distributed_1/Cast_29/ReadVariableOp", "op": "Const", "attr": {"value": {"tensor": {"dtype": "DT_FLOAT", "tensorShape": {"dim": [{"size": "128"}, {"size": "199"}]}}}, "dtype": {"type": "DT_FLOAT"}}}, {"name": "StatefulPartitionedCall/functional_1/time_distributed_1/BiasAdd_29/ReadVariableOp", "op": "Const", "attr": {"value": {"tensor": {"dtype": "DT_FLOAT", "tensorShape": {"dim": [{"size": "199"}]}}}, "dtype": {"type": "DT_FLOAT"}}}, {"name": "StatefulPartitionedCall/functional_1/time_distributed_1/transpose_1/perm", "op": "Const", "attr": {"value": {"tensor": {"dtype": "DT_INT32", "tensorShape": {"dim": [{"size": "3"}]}}}, "dtype": {"type": "DT_INT32"}}}, {"name": "input_layer", "op": "Placeholder", "attr": {"shape": {"shape": {"dim": [{"size": "-1"}, {"size": "30"}, {"size": "199"}]}}, "dtype": {"type": "DT_FLOAT"}}}, {"name": "StatefulPartitionedCall/functional_1/lstm_2_1/TensorArrayV2_1", "op": "TensorListReserve", "input": ["StatefulPartitionedCall/functional_1/lstm_2_1/TensorArrayV2_1/element_shape", "StatefulPartitionedCall/functional_1/lstm_2_1/TensorArrayV2_1/num_elements"], "attr": {"shape_type": {"type": "DT_INT32"}, "element_dtype": {"type": "DT_FLOAT"}}, "experimentalType": {"typeId": "TFT_PRODUCT", "args": [{"typeId": "TFT_ARRAY", "args": [{"typeId": "TFT_TENSOR", "args": [{"typeId": "TFT_FLOAT"}]}]}]}}, {"name": "StatefulPartitionedCall/functional_1/lstm_1_2/TensorArrayV2_1", "op": "TensorListReserve", "input": ["StatefulPartitionedCall/functional_1/lstm_1_2/TensorArrayV2_1/element_shape", "StatefulPartitionedCall/functional_1/lstm_1_2/TensorArrayV2_1/num_elements"], "attr": {"shape_type": {"type": "DT_INT32"}, "element_dtype": {"type": "DT_FLOAT"}}, "experimentalType": {"typeId": "TFT_PRODUCT", "args": [{"typeId": "TFT_ARRAY", "args": [{"typeId": "TFT_TENSOR", "args": [{"typeId": "TFT_FLOAT"}]}]}]}}, {"name": "StatefulPartitionedCall/functional_1/lstm_1/TensorArrayV2_1", "op": "TensorListReserve", "input": ["StatefulPartitionedCall/functional_1/lstm_1/TensorArrayV2_1/element_shape", "StatefulPartitionedCall/functional_1/lstm_1/TensorArrayV2_1/num_elements"], "attr": {"shape_type": {"type": "DT_INT32"}, "element_dtype": {"type": "DT_FLOAT"}}, "experimentalType": {"typeId": "TFT_PRODUCT", "args": [{"typeId": "TFT_ARRAY", "args": [{"typeId": "TFT_TENSOR", "args": [{"typeId": "TFT_FLOAT"}]}]}]}}, {"name": "StatefulPartitionedCall/functional_1/lstm_1/Shape", "op": "Shape", "input": ["input_layer"], "attr": {"T": {"type": "DT_FLOAT"}, "out_type": {"type": "DT_INT32"}}, "experimentalType": {"typeId": "TFT_PRODUCT", "args": [{"typeId": "TFT_SHAPE_TENSOR", "args": [{"typeId": "TFT_INT32"}]}]}}, {"name": "StatefulPartitionedCall/functional_1/lstm_1/transpose", "op": "Transpose", "input": ["input_layer", "StatefulPartitionedCall/functional_1/lstm_1/transpose/perm"], "attr": {"Tperm": {"type": "DT_INT32"}, "T": {"type": "DT_FLOAT"}}}, {"name": "StatefulPartitionedCall/functional_1/lstm_1/strided_slice", "op": "StridedSlice", "input": ["StatefulPartitionedCall/functional_1/lstm_1/Shape", "StatefulPartitionedCall/functional_1/lstm_1/strided_slice/stack", "StatefulPartitionedCall/functional_1/lstm_1/strided_slice/stack_1", "StatefulPartitionedCall/functional_1/lstm_1/strided_slice/stack_2"], "attr": {"shrink_axis_mask": {"i": "1"}, "Index": {"type": "DT_INT32"}, "new_axis_mask": {"i": "0"}, "begin_mask": {"i": "0"}, "T": {"type": "DT_INT32"}, "end_mask": {"i": "0"}, "ellipsis_mask": {"i": "0"}}}, {"name": "StatefulPartitionedCall/functional_1/lstm_1/TensorArrayUnstack/TensorListFromTensor", "op": "TensorListFromTensor", "input": ["StatefulPartitionedCall/functional_1/lstm_1/transpose", "StatefulPartitionedCall/functional_1/lstm_1/TensorArrayUnstack/TensorListFromTensor/element_shape"], "attr": {"shape_type": {"type": "DT_INT32"}, "element_dtype": {"type": "DT_FLOAT"}}, "experimentalType": {"typeId": "TFT_PRODUCT", "args": [{"typeId": "TFT_ARRAY", "args": [{"typeId": "TFT_TENSOR", "args": [{"typeId": "TFT_FLOAT"}]}]}]}}, {"name": "StatefulPartitionedCall/functional_1/lstm_1/zeros/packed", "op": "Pack", "input": ["StatefulPartitionedCall/functional_1/lstm_1/strided_slice", "StatefulPartitionedCall/functional_1/lstm_1/zeros/packed/1"], "attr": {"N": {"i": "2"}, "axis": {"i": "0"}, "T": {"type": "DT_INT32"}}}, {"name": "StatefulPartitionedCall/functional_1/lstm_1/zeros_1/packed", "op": "Pack", "input": ["StatefulPartitionedCall/functional_1/lstm_1/strided_slice", "StatefulPartitionedCall/functional_1/lstm_1/zeros_1/packed/1"], "attr": {"N": {"i": "2"}, "axis": {"i": "0"}, "T": {"type": "DT_INT32"}}}, {"name": "StatefulPartitionedCall/functional_1/lstm_1/zeros", "op": "Fill", "input": ["StatefulPartitionedCall/functional_1/lstm_1/zeros/packed", "StatefulPartitionedCall/functional_1/lstm_1/zeros/Const"], "attr": {"T": {"type": "DT_FLOAT"}, "index_type": {"type": "DT_INT32"}}}, {"name": "StatefulPartitionedCall/functional_1/lstm_1/zeros_1", "op": "Fill", "input": ["StatefulPartitionedCall/functional_1/lstm_1/zeros_1/packed", "StatefulPartitionedCall/functional_1/lstm_1/zeros_1/Const"], "attr": {"T": {"type": "DT_FLOAT"}, "index_type": {"type": "DT_INT32"}}}, {"name": "StatefulPartitionedCall/functional_1/lstm_1/while", "op": "While", "input": ["StatefulPartitionedCall/functional_1/lstm_1/while/loop_counter", "StatefulPartitionedCall/functional_1/lstm_1/Max", "StatefulPartitionedCall/functional_1/lstm_1/time", "StatefulPartitionedCall/functional_1/lstm_1/TensorArrayV2_1", "StatefulPartitionedCall/functional_1/lstm_1/zeros", "StatefulPartitionedCall/functional_1/lstm_1/zeros_1", "StatefulPartitionedCall/functional_1/lstm_1/TensorArrayUnstack/TensorListFromTensor", "unknown", "unknown_0", "unknown_1"], "attr": {"_has_manual_control_dependencies": {"b": true}, "_lower_using_switch_merge": {"b": false}, "cond": {"func": {"name": "__inference_functional_1_lstm_1_while_cond_17955_frozen_1130"}}, "parallel_iterations": {"i": "32"}, "_num_original_outputs": {"i": "10"}, "T": {"list": {"type": ["DT_INT32", "DT_INT32", "DT_INT32", "DT_VARIANT", "DT_FLOAT", "DT_FLOAT", "DT_VARIANT", "DT_FLOAT", "DT_FLOAT", "DT_FLOAT"]}}, "body": {"func": {"name": "__inference_functional_1_lstm_1_while_body_17956_frozen_1127"}}, "output_shapes": {"list": {"shape": [{}, {}, {}, {}, {"dim": [{"size": "-1"}, {"size": "128"}]}, {"dim": [{"size": "-1"}, {"size": "128"}]}, {}, {"dim": [{"size": "199"}, {"size": "512"}]}, {"dim": [{"size": "128"}, {"size": "512"}]}, {"dim": [{"size": "512"}]}]}}, "_read_only_resource_inputs": {"list": {"i": ["7", "8", "9"]}}}}, {"name": "StatefulPartitionedCall/functional_1/lstm_1/TensorArrayV2Stack/TensorListStack", "op": "TensorListStack", "input": ["StatefulPartitionedCall/functional_1/lstm_1/while:3", "StatefulPartitionedCall/functional_1/lstm_1/TensorArrayV2Stack/TensorListStack/element_shape"], "attr": {"num_elements": {"i": "30"}, "element_dtype": {"type": "DT_FLOAT"}}}, {"name": "StatefulPartitionedCall/functional_1/lstm_1/transpose_1", "op": "Transpose", "input": ["StatefulPartitionedCall/functional_1/lstm_1/TensorArrayV2Stack/TensorListStack", "StatefulPartitionedCall/functional_1/lstm_1/transpose_1/perm"], "attr": {"Tperm": {"type": "DT_INT32"}, "T": {"type": "DT_FLOAT"}}}, {"name": "StatefulPartitionedCall/functional_1/lstm_1_2/TensorArrayUnstack/TensorListFromTensor", "op": "TensorListFromTensor", "input": ["StatefulPartitionedCall/functional_1/lstm_1/TensorArrayV2Stack/TensorListStack", "StatefulPartitionedCall/functional_1/lstm_1_2/TensorArrayUnstack/TensorListFromTensor/element_shape"], "attr": {"shape_type": {"type": "DT_INT32"}, "element_dtype": {"type": "DT_FLOAT"}}, "experimentalType": {"typeId": "TFT_PRODUCT", "args": [{"typeId": "TFT_ARRAY", "args": [{"typeId": "TFT_TENSOR", "args": [{"typeId": "TFT_FLOAT"}]}]}]}}, {"name": "StatefulPartitionedCall/functional_1/lstm_1_2/Shape", "op": "Shape", "input": ["StatefulPartitionedCall/functional_1/lstm_1/transpose_1"], "attr": {"T": {"type": "DT_FLOAT"}, "out_type": {"type": "DT_INT32"}}, "experimentalType": {"typeId": "TFT_PRODUCT", "args": [{"typeId": "TFT_SHAPE_TENSOR", "args": [{"typeId": "TFT_INT32"}]}]}}, {"name": "StatefulPartitionedCall/functional_1/lstm_1_2/strided_slice", "op": "StridedSlice", "input": ["StatefulPartitionedCall/functional_1/lstm_1_2/Shape", "StatefulPartitionedCall/functional_1/lstm_1_2/strided_slice/stack", "StatefulPartitionedCall/functional_1/lstm_1_2/strided_slice/stack_1", "StatefulPartitionedCall/functional_1/lstm_1_2/strided_slice/stack_2"], "attr": {"shrink_axis_mask": {"i": "1"}, "Index": {"type": "DT_INT32"}, "new_axis_mask": {"i": "0"}, "begin_mask": {"i": "0"}, "end_mask": {"i": "0"}, "T": {"type": "DT_INT32"}, "ellipsis_mask": {"i": "0"}}}, {"name": "StatefulPartitionedCall/functional_1/lstm_1_2/zeros/packed", "op": "Pack", "input": ["StatefulPartitionedCall/functional_1/lstm_1_2/strided_slice", "StatefulPartitionedCall/functional_1/lstm_1_2/zeros/packed/1"], "attr": {"N": {"i": "2"}, "axis": {"i": "0"}, "T": {"type": "DT_INT32"}}}, {"name": "StatefulPartitionedCall/functional_1/lstm_1_2/zeros_1/packed", "op": "Pack", "input": ["StatefulPartitionedCall/functional_1/lstm_1_2/strided_slice", "StatefulPartitionedCall/functional_1/lstm_1_2/zeros_1/packed/1"], "attr": {"N": {"i": "2"}, "axis": {"i": "0"}, "T": {"type": "DT_INT32"}}}, {"name": "StatefulPartitionedCall/functional_1/lstm_1_2/zeros", "op": "Fill", "input": ["StatefulPartitionedCall/functional_1/lstm_1_2/zeros/packed", "StatefulPartitionedCall/functional_1/lstm_1_2/zeros/Const"], "attr": {"T": {"type": "DT_FLOAT"}, "index_type": {"type": "DT_INT32"}}}, {"name": "StatefulPartitionedCall/functional_1/lstm_1_2/zeros_1", "op": "Fill", "input": ["StatefulPartitionedCall/functional_1/lstm_1_2/zeros_1/packed", "StatefulPartitionedCall/functional_1/lstm_1_2/zeros_1/Const"], "attr": {"T": {"type": "DT_FLOAT"}, "index_type": {"type": "DT_INT32"}}}, {"name": "StatefulPartitionedCall/functional_1/lstm_1_2/while", "op": "While", "input": ["StatefulPartitionedCall/functional_1/lstm_1_2/while/loop_counter", "StatefulPartitionedCall/functional_1/lstm_1_2/Max", "StatefulPartitionedCall/functional_1/lstm_1_2/time", "StatefulPartitionedCall/functional_1/lstm_1_2/TensorArrayV2_1", "StatefulPartitionedCall/functional_1/lstm_1_2/zeros", "StatefulPartitionedCall/functional_1/lstm_1_2/zeros_1", "StatefulPartitionedCall/functional_1/lstm_1_2/TensorArrayUnstack/TensorListFromTensor", "unknown_2", "unknown_3", "unknown_4"], "attr": {"_has_manual_control_dependencies": {"b": true}, "_lower_using_switch_merge": {"b": false}, "cond": {"func": {"name": "__inference_functional_1_lstm_1_2_while_cond_18100_frozen_1128"}}, "_num_original_outputs": {"i": "10"}, "parallel_iterations": {"i": "32"}, "T": {"list": {"type": ["DT_INT32", "DT_INT32", "DT_INT32", "DT_VARIANT", "DT_FLOAT", "DT_FLOAT", "DT_VARIANT", "DT_FLOAT", "DT_FLOAT", "DT_FLOAT"]}}, "body": {"func": {"name": "__inference_functional_1_lstm_1_2_while_body_18101_frozen_1129"}}, "output_shapes": {"list": {"shape": [{}, {}, {}, {}, {"dim": [{"size": "-1"}, {"size": "64"}]}, {"dim": [{"size": "-1"}, {"size": "64"}]}, {}, {"dim": [{"size": "128"}, {"size": "256"}]}, {"dim": [{"size": "64"}, {"size": "256"}]}, {"dim": [{"size": "256"}]}]}}, "_read_only_resource_inputs": {"list": {"i": ["7", "8", "9"]}}}}, {"name": "StatefulPartitionedCall/functional_1/lstm_1_2/TensorArrayV2Stack/TensorListStack", "op": "TensorListStack", "input": ["StatefulPartitionedCall/functional_1/lstm_1_2/while:3", "StatefulPartitionedCall/functional_1/lstm_1_2/TensorArrayV2Stack/TensorListStack/element_shape"], "attr": {"num_elements": {"i": "1"}, "element_dtype": {"type": "DT_FLOAT"}}}, {"name": "StatefulPartitionedCall/functional_1/lstm_1_2/strided_slice_3", "op": "StridedSlice", "input": ["StatefulPartitionedCall/functional_1/lstm_1_2/TensorArrayV2Stack/TensorListStack", "StatefulPartitionedCall/functional_1/lstm_1_2/strided_slice_3/stack", "StatefulPartitionedCall/functional_1/lstm_1_2/strided_slice_3/stack_1", "StatefulPartitionedCall/functional_1/lstm_1_2/strided_slice_3/stack_2"], "attr": {"shrink_axis_mask": {"i": "1"}, "new_axis_mask": {"i": "0"}, "Index": {"type": "DT_INT32"}, "begin_mask": {"i": "0"}, "end_mask": {"i": "0"}, "T": {"type": "DT_FLOAT"}, "ellipsis_mask": {"i": "0"}}}, {"name": "StatefulPartitionedCall/functional_1/repeat_vector_1/Shape", "op": "Shape", "input": ["StatefulPartitionedCall/functional_1/lstm_1_2/strided_slice_3"], "attr": {"T": {"type": "DT_FLOAT"}, "out_type": {"type": "DT_INT32"}}, "experimentalType": {"typeId": "TFT_PRODUCT", "args": [{"typeId": "TFT_SHAPE_TENSOR", "args": [{"typeId": "TFT_INT32"}]}]}}, {"name": "StatefulPartitionedCall/functional_1/repeat_vector_1/strided_slice", "op": "StridedSlice", "input": ["StatefulPartitionedCall/functional_1/repeat_vector_1/Shape", "StatefulPartitionedCall/functional_1/repeat_vector_1/strided_slice/stack", "StatefulPartitionedCall/functional_1/repeat_vector_1/strided_slice/stack_1", "StatefulPartitionedCall/functional_1/repeat_vector_1/strided_slice/stack_2"], "attr": {"shrink_axis_mask": {"i": "1"}, "Index": {"type": "DT_INT32"}, "new_axis_mask": {"i": "0"}, "begin_mask": {"i": "0"}, "T": {"type": "DT_INT32"}, "end_mask": {"i": "0"}, "ellipsis_mask": {"i": "0"}}}, {"name": "StatefulPartitionedCall/functional_1/repeat_vector_1/Reshape/shape", "op": "Pack", "input": ["StatefulPartitionedCall/functional_1/repeat_vector_1/strided_slice", "StatefulPartitionedCall/functional_1/repeat_vector_1/Reshape/shape/1", "StatefulPartitionedCall/functional_1/repeat_vector_1/Reshape/shape/2"], "attr": {"N": {"i": "3"}, "axis": {"i": "0"}, "T": {"type": "DT_INT32"}}}, {"name": "StatefulPartitionedCall/functional_1/repeat_vector_1/Reshape", "op": "Reshape", "input": ["StatefulPartitionedCall/functional_1/lstm_1_2/strided_slice_3", "StatefulPartitionedCall/functional_1/repeat_vector_1/Reshape/shape"], "attr": {"T": {"type": "DT_FLOAT"}, "Tshape": {"type": "DT_INT32"}}}, {"name": "StatefulPartitionedCall/functional_1/repeat_vector_1/Repeat/ExpandDims", "op": "ExpandDims", "input": ["StatefulPartitionedCall/functional_1/repeat_vector_1/Reshape", "StatefulPartitionedCall/functional_1/repeat_vector_1/Repeat/ExpandDims/dim"], "attr": {"Tdim": {"type": "DT_INT32"}, "T": {"type": "DT_FLOAT"}}}, {"name": "StatefulPartitionedCall/functional_1/repeat_vector_1/Repeat/Shape", "op": "Shape", "input": ["StatefulPartitionedCall/functional_1/repeat_vector_1/Reshape"], "attr": {"T": {"type": "DT_FLOAT"}, "out_type": {"type": "DT_INT32"}}, "experimentalType": {"typeId": "TFT_PRODUCT", "args": [{"typeId": "TFT_SHAPE_TENSOR", "args": [{"typeId": "TFT_INT32"}]}]}}, {"name": "StatefulPartitionedCall/functional_1/repeat_vector_1/Repeat/Tile", "op": "Tile", "input": ["StatefulPartitionedCall/functional_1/repeat_vector_1/Repeat/ExpandDims", "StatefulPartitionedCall/functional_1/repeat_vector_1/Repeat/Tile/multiples"], "attr": {"T": {"type": "DT_FLOAT"}, "Tmultiples": {"type": "DT_INT32"}}}, {"name": "StatefulPartitionedCall/functional_1/repeat_vector_1/Repeat/strided_slice", "op": "StridedSlice", "input": ["StatefulPartitionedCall/functional_1/repeat_vector_1/Repeat/Shape", "StatefulPartitionedCall/functional_1/repeat_vector_1/Repeat/strided_slice/stack", "StatefulPartitionedCall/functional_1/repeat_vector_1/Repeat/strided_slice/stack_1", "StatefulPartitionedCall/functional_1/repeat_vector_1/Repeat/strided_slice/stack_2"], "attr": {"shrink_axis_mask": {"i": "0"}, "Index": {"type": "DT_INT32"}, "new_axis_mask": {"i": "0"}, "begin_mask": {"i": "1"}, "T": {"type": "DT_INT32"}, "end_mask": {"i": "0"}, "ellipsis_mask": {"i": "0"}}}, {"name": "StatefulPartitionedCall/functional_1/repeat_vector_1/Repeat/strided_slice_1", "op": "StridedSlice", "input": ["StatefulPartitionedCall/functional_1/repeat_vector_1/Repeat/Shape", "StatefulPartitionedCall/functional_1/repeat_vector_1/Repeat/strided_slice_1/stack", "StatefulPartitionedCall/functional_1/repeat_vector_1/Repeat/strided_slice_1/stack_1", "StatefulPartitionedCall/functional_1/repeat_vector_1/Repeat/strided_slice_1/stack_2"], "attr": {"shrink_axis_mask": {"i": "1"}, "Index": {"type": "DT_INT32"}, "new_axis_mask": {"i": "0"}, "begin_mask": {"i": "0"}, "T": {"type": "DT_INT32"}, "end_mask": {"i": "0"}, "ellipsis_mask": {"i": "0"}}}, {"name": "StatefulPartitionedCall/functional_1/repeat_vector_1/Repeat/strided_slice_2", "op": "StridedSlice", "input": ["StatefulPartitionedCall/functional_1/repeat_vector_1/Repeat/Shape", "StatefulPartitionedCall/functional_1/repeat_vector_1/Repeat/strided_slice_2/stack", "StatefulPartitionedCall/functional_1/repeat_vector_1/Repeat/strided_slice_2/stack_1", "StatefulPartitionedCall/functional_1/repeat_vector_1/Repeat/strided_slice_2/stack_2"], "attr": {"shrink_axis_mask": {"i": "0"}, "Index": {"type": "DT_INT32"}, "new_axis_mask": {"i": "0"}, "begin_mask": {"i": "0"}, "T": {"type": "DT_INT32"}, "end_mask": {"i": "1"}, "ellipsis_mask": {"i": "0"}}}, {"name": "StatefulPartitionedCall/functional_1/repeat_vector_1/Repeat/mul", "op": "Mul", "input": ["StatefulPartitionedCall/functional_1/repeat_vector_1/Repeat/Reshape", "StatefulPartitionedCall/functional_1/repeat_vector_1/Repeat/strided_slice_1"], "attr": {"T": {"type": "DT_INT32"}}}, {"name": "ConstantFolding/StatefulPartitionedCall/functional_1/repeat_vector_1/Repeat/concat/values_1_const_axis", "op": "Const", "input": ["^StatefulPartitionedCall/functional_1/repeat_vector_1/Repeat/mul"], "attr": {"value": {"tensor": {"dtype": "DT_INT32", "tensorShape": {}}}, "dtype": {"type": "DT_INT32"}}}, {"name": "StatefulPartitionedCall/functional_1/repeat_vector_1/Repeat/concat/values_1", "op": "ExpandDims", "input": ["StatefulPartitionedCall/functional_1/repeat_vector_1/Repeat/mul", "ConstantFolding/StatefulPartitionedCall/functional_1/repeat_vector_1/Repeat/concat/values_1_const_axis"], "attr": {"Tdim": {"type": "DT_INT32"}, "T": {"type": "DT_INT32"}}}, {"name": "StatefulPartitionedCall/functional_1/repeat_vector_1/Repeat/concat", "op": "ConcatV2", "input": ["StatefulPartitionedCall/functional_1/repeat_vector_1/Repeat/strided_slice", "StatefulPartitionedCall/functional_1/repeat_vector_1/Repeat/concat/values_1", "StatefulPartitionedCall/functional_1/repeat_vector_1/Repeat/strided_slice_2", "StatefulPartitionedCall/functional_1/repeat_vector_1/Repeat/concat/axis"], "attr": {"N": {"i": "3"}, "Tidx": {"type": "DT_INT32"}, "T": {"type": "DT_INT32"}}}, {"name": "StatefulPartitionedCall/functional_1/repeat_vector_1/Repeat/Reshape_1", "op": "Reshape", "input": ["StatefulPartitionedCall/functional_1/repeat_vector_1/Repeat/Tile", "StatefulPartitionedCall/functional_1/repeat_vector_1/Repeat/concat"], "attr": {"T": {"type": "DT_FLOAT"}, "Tshape": {"type": "DT_INT32"}}}, {"name": "StatefulPartitionedCall/functional_1/lstm_2_1/Shape", "op": "Shape", "input": ["StatefulPartitionedCall/functional_1/repeat_vector_1/Repeat/Reshape_1"], "attr": {"T": {"type": "DT_FLOAT"}, "out_type": {"type": "DT_INT32"}}, "experimentalType": {"typeId": "TFT_PRODUCT", "args": [{"typeId": "TFT_SHAPE_TENSOR", "args": [{"typeId": "TFT_INT32"}]}]}}, {"name": "StatefulPartitionedCall/functional_1/lstm_2_1/transpose", "op": "Transpose", "input": ["StatefulPartitionedCall/functional_1/repeat_vector_1/Repeat/Reshape_1", "StatefulPartitionedCall/functional_1/lstm_2_1/transpose/perm"], "attr": {"Tperm": {"type": "DT_INT32"}, "T": {"type": "DT_FLOAT"}}}, {"name": "StatefulPartitionedCall/functional_1/lstm_2_1/strided_slice", "op": "StridedSlice", "input": ["StatefulPartitionedCall/functional_1/lstm_2_1/Shape", "StatefulPartitionedCall/functional_1/lstm_2_1/strided_slice/stack", "StatefulPartitionedCall/functional_1/lstm_2_1/strided_slice/stack_1", "StatefulPartitionedCall/functional_1/lstm_2_1/strided_slice/stack_2"], "attr": {"shrink_axis_mask": {"i": "1"}, "new_axis_mask": {"i": "0"}, "Index": {"type": "DT_INT32"}, "begin_mask": {"i": "0"}, "T": {"type": "DT_INT32"}, "end_mask": {"i": "0"}, "ellipsis_mask": {"i": "0"}}}, {"name": "StatefulPartitionedCall/functional_1/lstm_2_1/TensorArrayUnstack/TensorListFromTensor", "op": "TensorListFromTensor", "input": ["StatefulPartitionedCall/functional_1/lstm_2_1/transpose", "StatefulPartitionedCall/functional_1/lstm_2_1/TensorArrayUnstack/TensorListFromTensor/element_shape"], "attr": {"shape_type": {"type": "DT_INT32"}, "element_dtype": {"type": "DT_FLOAT"}}, "experimentalType": {"typeId": "TFT_PRODUCT", "args": [{"typeId": "TFT_ARRAY", "args": [{"typeId": "TFT_TENSOR", "args": [{"typeId": "TFT_FLOAT"}]}]}]}}, {"name": "StatefulPartitionedCall/functional_1/lstm_2_1/zeros/packed", "op": "Pack", "input": ["StatefulPartitionedCall/functional_1/lstm_2_1/strided_slice", "StatefulPartitionedCall/functional_1/lstm_2_1/zeros/packed/1"], "attr": {"N": {"i": "2"}, "axis": {"i": "0"}, "T": {"type": "DT_INT32"}}}, {"name": "StatefulPartitionedCall/functional_1/lstm_2_1/zeros_1/packed", "op": "Pack", "input": ["StatefulPartitionedCall/functional_1/lstm_2_1/strided_slice", "StatefulPartitionedCall/functional_1/lstm_2_1/zeros_1/packed/1"], "attr": {"N": {"i": "2"}, "axis": {"i": "0"}, "T": {"type": "DT_INT32"}}}, {"name": "StatefulPartitionedCall/functional_1/lstm_2_1/zeros", "op": "Fill", "input": ["StatefulPartitionedCall/functional_1/lstm_2_1/zeros/packed", "StatefulPartitionedCall/functional_1/lstm_2_1/zeros/Const"], "attr": {"T": {"type": "DT_FLOAT"}, "index_type": {"type": "DT_INT32"}}}, {"name": "StatefulPartitionedCall/functional_1/lstm_2_1/zeros_1", "op": "Fill", "input": ["StatefulPartitionedCall/functional_1/lstm_2_1/zeros_1/packed", "StatefulPartitionedCall/functional_1/lstm_2_1/zeros_1/Const"], "attr": {"T": {"type": "DT_FLOAT"}, "index_type": {"type": "DT_INT32"}}}, {"name": "StatefulPartitionedCall/functional_1/lstm_2_1/while", "op": "While", "input": ["StatefulPartitionedCall/functional_1/lstm_2_1/while/loop_counter", "StatefulPartitionedCall/functional_1/lstm_2_1/Max", "StatefulPartitionedCall/functional_1/lstm_2_1/time", "StatefulPartitionedCall/functional_1/lstm_2_1/TensorArrayV2_1", "StatefulPartitionedCall/functional_1/lstm_2_1/zeros", "StatefulPartitionedCall/functional_1/lstm_2_1/zeros_1", "StatefulPartitionedCall/functional_1/lstm_2_1/TensorArrayUnstack/TensorListFromTensor", "unknown_5", "unknown_6", "unknown_7"], "attr": {"_has_manual_control_dependencies": {"b": true}, "cond": {"func": {"name": "__inference_functional_1_lstm_2_1_while_cond_18285_frozen_1126"}}, "_lower_using_switch_merge": {"b": false}, "parallel_iterations": {"i": "32"}, "_num_original_outputs": {"i": "10"}, "T": {"list": {"type": ["DT_INT32", "DT_INT32", "DT_INT32", "DT_VARIANT", "DT_FLOAT", "DT_FLOAT", "DT_VARIANT", "DT_FLOAT", "DT_FLOAT", "DT_FLOAT"]}}, "body": {"func": {"name": "__inference_functional_1_lstm_2_1_while_body_18286_frozen_1131"}}, "output_shapes": {"list": {"shape": [{}, {}, {}, {}, {"dim": [{"size": "-1"}, {"size": "128"}]}, {"dim": [{"size": "-1"}, {"size": "128"}]}, {}, {"dim": [{"size": "64"}, {"size": "512"}]}, {"dim": [{"size": "128"}, {"size": "512"}]}, {"dim": [{"size": "512"}]}]}}, "_read_only_resource_inputs": {"list": {"i": ["7", "8", "9"]}}}}, {"name": "StatefulPartitionedCall/functional_1/lstm_2_1/TensorArrayV2Stack/TensorListStack", "op": "TensorListStack", "input": ["StatefulPartitionedCall/functional_1/lstm_2_1/while:3", "StatefulPartitionedCall/functional_1/lstm_2_1/TensorArrayV2Stack/TensorListStack/element_shape"], "attr": {"num_elements": {"i": "30"}, "element_dtype": {"type": "DT_FLOAT"}}}, {"name": "StatefulPartitionedCall/functional_1/time_distributed_1/strided_slice_1", "op": "StridedSlice", "input": ["StatefulPartitionedCall/functional_1/lstm_2_1/TensorArrayV2Stack/TensorListStack", "StatefulPartitionedCall/functional_1/time_distributed_1/strided_slice_1/stack", "StatefulPartitionedCall/functional_1/time_distributed_1/strided_slice_1/stack_1", "StatefulPartitionedCall/functional_1/time_distributed_1/strided_slice_1/stack_2"], "attr": {"shrink_axis_mask": {"i": "1"}, "new_axis_mask": {"i": "0"}, "Index": {"type": "DT_INT32"}, "begin_mask": {"i": "0"}, "T": {"type": "DT_FLOAT"}, "end_mask": {"i": "0"}, "ellipsis_mask": {"i": "0"}}}, {"name": "StatefulPartitionedCall/functional_1/time_distributed_1/strided_slice_22", "op": "StridedSlice", "input": ["StatefulPartitionedCall/functional_1/lstm_2_1/TensorArrayV2Stack/TensorListStack", "StatefulPartitionedCall/functional_1/time_distributed_1/strided_slice_22/stack", "StatefulPartitionedCall/functional_1/time_distributed_1/strided_slice_22/stack_1", "StatefulPartitionedCall/functional_1/time_distributed_1/strided_slice_22/stack_2"], "attr": {"shrink_axis_mask": {"i": "1"}, "new_axis_mask": {"i": "0"}, "Index": {"type": "DT_INT32"}, "begin_mask": {"i": "0"}, "T": {"type": "DT_FLOAT"}, "end_mask": {"i": "0"}, "ellipsis_mask": {"i": "0"}}}, {"name": "StatefulPartitionedCall/functional_1/time_distributed_1/strided_slice_2", "op": "StridedSlice", "input": ["StatefulPartitionedCall/functional_1/lstm_2_1/TensorArrayV2Stack/TensorListStack", "StatefulPartitionedCall/functional_1/time_distributed_1/strided_slice_2/stack", "StatefulPartitionedCall/functional_1/time_distributed_1/strided_slice_2/stack_1", "StatefulPartitionedCall/functional_1/time_distributed_1/strided_slice_2/stack_2"], "attr": {"shrink_axis_mask": {"i": "1"}, "Index": {"type": "DT_INT32"}, "new_axis_mask": {"i": "0"}, "begin_mask": {"i": "0"}, "end_mask": {"i": "0"}, "T": {"type": "DT_FLOAT"}, "ellipsis_mask": {"i": "0"}}}, {"name": "StatefulPartitionedCall/functional_1/time_distributed_1/strided_slice_29", "op": "StridedSlice", "input": ["StatefulPartitionedCall/functional_1/lstm_2_1/TensorArrayV2Stack/TensorListStack", "StatefulPartitionedCall/functional_1/time_distributed_1/strided_slice_29/stack", "StatefulPartitionedCall/functional_1/time_distributed_1/strided_slice_29/stack_1", "StatefulPartitionedCall/functional_1/time_distributed_1/strided_slice_29/stack_2"], "attr": {"shrink_axis_mask": {"i": "1"}, "new_axis_mask": {"i": "0"}, "Index": {"type": "DT_INT32"}, "begin_mask": {"i": "0"}, "T": {"type": "DT_FLOAT"}, "end_mask": {"i": "0"}, "ellipsis_mask": {"i": "0"}}}, {"name": "StatefulPartitionedCall/functional_1/time_distributed_1/strided_slice_3", "op": "StridedSlice", "input": ["StatefulPartitionedCall/functional_1/lstm_2_1/TensorArrayV2Stack/TensorListStack", "StatefulPartitionedCall/functional_1/time_distributed_1/strided_slice_3/stack", "StatefulPartitionedCall/functional_1/time_distributed_1/strided_slice_3/stack_1", "StatefulPartitionedCall/functional_1/time_distributed_1/strided_slice_3/stack_2"], "attr": {"shrink_axis_mask": {"i": "1"}, "new_axis_mask": {"i": "0"}, "Index": {"type": "DT_INT32"}, "begin_mask": {"i": "0"}, "T": {"type": "DT_FLOAT"}, "end_mask": {"i": "0"}, "ellipsis_mask": {"i": "0"}}}, {"name": "StatefulPartitionedCall/functional_1/time_distributed_1/strided_slice_4", "op": "StridedSlice", "input": ["StatefulPartitionedCall/functional_1/lstm_2_1/TensorArrayV2Stack/TensorListStack", "StatefulPartitionedCall/functional_1/time_distributed_1/strided_slice_4/stack", "StatefulPartitionedCall/functional_1/time_distributed_1/strided_slice_4/stack_1", "StatefulPartitionedCall/functional_1/time_distributed_1/strided_slice_4/stack_2"], "attr": {"shrink_axis_mask": {"i": "1"}, "Index": {"type": "DT_INT32"}, "new_axis_mask": {"i": "0"}, "begin_mask": {"i": "0"}, "T": {"type": "DT_FLOAT"}, "end_mask": {"i": "0"}, "ellipsis_mask": {"i": "0"}}}, {"name": "StatefulPartitionedCall/functional_1/time_distributed_1/strided_slice_23", "op": "StridedSlice", "input": ["StatefulPartitionedCall/functional_1/lstm_2_1/TensorArrayV2Stack/TensorListStack", "StatefulPartitionedCall/functional_1/time_distributed_1/strided_slice_23/stack", "StatefulPartitionedCall/functional_1/time_distributed_1/strided_slice_23/stack_1", "StatefulPartitionedCall/functional_1/time_distributed_1/strided_slice_23/stack_2"], "attr": {"shrink_axis_mask": {"i": "1"}, "Index": {"type": "DT_INT32"}, "new_axis_mask": {"i": "0"}, "begin_mask": {"i": "0"}, "T": {"type": "DT_FLOAT"}, "end_mask": {"i": "0"}, "ellipsis_mask": {"i": "0"}}}, {"name": "StatefulPartitionedCall/functional_1/time_distributed_1/strided_slice_5", "op": "StridedSlice", "input": ["StatefulPartitionedCall/functional_1/lstm_2_1/TensorArrayV2Stack/TensorListStack", "StatefulPartitionedCall/functional_1/time_distributed_1/strided_slice_5/stack", "StatefulPartitionedCall/functional_1/time_distributed_1/strided_slice_5/stack_1", "StatefulPartitionedCall/functional_1/time_distributed_1/strided_slice_5/stack_2"], "attr": {"shrink_axis_mask": {"i": "1"}, "new_axis_mask": {"i": "0"}, "Index": {"type": "DT_INT32"}, "begin_mask": {"i": "0"}, "T": {"type": "DT_FLOAT"}, "end_mask": {"i": "0"}, "ellipsis_mask": {"i": "0"}}}, {"name": "StatefulPartitionedCall/functional_1/time_distributed_1/strided_slice_6", "op": "StridedSlice", "input": ["StatefulPartitionedCall/functional_1/lstm_2_1/TensorArrayV2Stack/TensorListStack", "StatefulPartitionedCall/functional_1/time_distributed_1/strided_slice_6/stack", "StatefulPartitionedCall/functional_1/time_distributed_1/strided_slice_6/stack_1", "StatefulPartitionedCall/functional_1/time_distributed_1/strided_slice_6/stack_2"], "attr": {"shrink_axis_mask": {"i": "1"}, "Index": {"type": "DT_INT32"}, "new_axis_mask": {"i": "0"}, "begin_mask": {"i": "0"}, "end_mask": {"i": "0"}, "T": {"type": "DT_FLOAT"}, "ellipsis_mask": {"i": "0"}}}, {"name": "StatefulPartitionedCall/functional_1/time_distributed_1/strided_slice_7", "op": "StridedSlice", "input": ["StatefulPartitionedCall/functional_1/lstm_2_1/TensorArrayV2Stack/TensorListStack", "StatefulPartitionedCall/functional_1/time_distributed_1/strided_slice_7/stack", "StatefulPartitionedCall/functional_1/time_distributed_1/strided_slice_7/stack_1", "StatefulPartitionedCall/functional_1/time_distributed_1/strided_slice_7/stack_2"], "attr": {"shrink_axis_mask": {"i": "1"}, "new_axis_mask": {"i": "0"}, "Index": {"type": "DT_INT32"}, "begin_mask": {"i": "0"}, "end_mask": {"i": "0"}, "T": {"type": "DT_FLOAT"}, "ellipsis_mask": {"i": "0"}}}, {"name": "StatefulPartitionedCall/functional_1/time_distributed_1/strided_slice_24", "op": "StridedSlice", "input": ["StatefulPartitionedCall/functional_1/lstm_2_1/TensorArrayV2Stack/TensorListStack", "StatefulPartitionedCall/functional_1/time_distributed_1/strided_slice_24/stack", "StatefulPartitionedCall/functional_1/time_distributed_1/strided_slice_24/stack_1", "StatefulPartitionedCall/functional_1/time_distributed_1/strided_slice_24/stack_2"], "attr": {"shrink_axis_mask": {"i": "1"}, "Index": {"type": "DT_INT32"}, "new_axis_mask": {"i": "0"}, "begin_mask": {"i": "0"}, "end_mask": {"i": "0"}, "T": {"type": "DT_FLOAT"}, "ellipsis_mask": {"i": "0"}}}, {"name": "StatefulPartitionedCall/functional_1/time_distributed_1/strided_slice_8", "op": "StridedSlice", "input": ["StatefulPartitionedCall/functional_1/lstm_2_1/TensorArrayV2Stack/TensorListStack", "StatefulPartitionedCall/functional_1/time_distributed_1/strided_slice_8/stack", "StatefulPartitionedCall/functional_1/time_distributed_1/strided_slice_8/stack_1", "StatefulPartitionedCall/functional_1/time_distributed_1/strided_slice_8/stack_2"], "attr": {"shrink_axis_mask": {"i": "1"}, "new_axis_mask": {"i": "0"}, "Index": {"type": "DT_INT32"}, "begin_mask": {"i": "0"}, "end_mask": {"i": "0"}, "T": {"type": "DT_FLOAT"}, "ellipsis_mask": {"i": "0"}}}, {"name": "StatefulPartitionedCall/functional_1/time_distributed_1/strided_slice_9", "op": "StridedSlice", "input": ["StatefulPartitionedCall/functional_1/lstm_2_1/TensorArrayV2Stack/TensorListStack", "StatefulPartitionedCall/functional_1/time_distributed_1/strided_slice_9/stack", "StatefulPartitionedCall/functional_1/time_distributed_1/strided_slice_9/stack_1", "StatefulPartitionedCall/functional_1/time_distributed_1/strided_slice_9/stack_2"], "attr": {"shrink_axis_mask": {"i": "1"}, "new_axis_mask": {"i": "0"}, "Index": {"type": "DT_INT32"}, "begin_mask": {"i": "0"}, "end_mask": {"i": "0"}, "T": {"type": "DT_FLOAT"}, "ellipsis_mask": {"i": "0"}}}, {"name": "StatefulPartitionedCall/functional_1/time_distributed_1/strided_slice_10", "op": "StridedSlice", "input": ["StatefulPartitionedCall/functional_1/lstm_2_1/TensorArrayV2Stack/TensorListStack", "StatefulPartitionedCall/functional_1/time_distributed_1/strided_slice_10/stack", "StatefulPartitionedCall/functional_1/time_distributed_1/strided_slice_10/stack_1", "StatefulPartitionedCall/functional_1/time_distributed_1/strided_slice_10/stack_2"], "attr": {"shrink_axis_mask": {"i": "1"}, "new_axis_mask": {"i": "0"}, "Index": {"type": "DT_INT32"}, "begin_mask": {"i": "0"}, "end_mask": {"i": "0"}, "T": {"type": "DT_FLOAT"}, "ellipsis_mask": {"i": "0"}}}, {"name": "StatefulPartitionedCall/functional_1/time_distributed_1/strided_slice_25", "op": "StridedSlice", "input": ["StatefulPartitionedCall/functional_1/lstm_2_1/TensorArrayV2Stack/TensorListStack", "StatefulPartitionedCall/functional_1/time_distributed_1/strided_slice_25/stack", "StatefulPartitionedCall/functional_1/time_distributed_1/strided_slice_25/stack_1", "StatefulPartitionedCall/functional_1/time_distributed_1/strided_slice_25/stack_2"], "attr": {"shrink_axis_mask": {"i": "1"}, "Index": {"type": "DT_INT32"}, "new_axis_mask": {"i": "0"}, "begin_mask": {"i": "0"}, "end_mask": {"i": "0"}, "T": {"type": "DT_FLOAT"}, "ellipsis_mask": {"i": "0"}}}, {"name": "StatefulPartitionedCall/functional_1/time_distributed_1/strided_slice_11", "op": "StridedSlice", "input": ["StatefulPartitionedCall/functional_1/lstm_2_1/TensorArrayV2Stack/TensorListStack", "StatefulPartitionedCall/functional_1/time_distributed_1/strided_slice_11/stack", "StatefulPartitionedCall/functional_1/time_distributed_1/strided_slice_11/stack_1", "StatefulPartitionedCall/functional_1/time_distributed_1/strided_slice_11/stack_2"], "attr": {"shrink_axis_mask": {"i": "1"}, "new_axis_mask": {"i": "0"}, "Index": {"type": "DT_INT32"}, "begin_mask": {"i": "0"}, "end_mask": {"i": "0"}, "T": {"type": "DT_FLOAT"}, "ellipsis_mask": {"i": "0"}}}, {"name": "StatefulPartitionedCall/functional_1/time_distributed_1/strided_slice_30", "op": "StridedSlice", "input": ["StatefulPartitionedCall/functional_1/lstm_2_1/TensorArrayV2Stack/TensorListStack", "StatefulPartitionedCall/functional_1/time_distributed_1/strided_slice_30/stack", "StatefulPartitionedCall/functional_1/time_distributed_1/strided_slice_30/stack_1", "StatefulPartitionedCall/functional_1/time_distributed_1/strided_slice_30/stack_2"], "attr": {"shrink_axis_mask": {"i": "1"}, "Index": {"type": "DT_INT32"}, "new_axis_mask": {"i": "0"}, "begin_mask": {"i": "0"}, "T": {"type": "DT_FLOAT"}, "end_mask": {"i": "0"}, "ellipsis_mask": {"i": "0"}}}, {"name": "StatefulPartitionedCall/functional_1/time_distributed_1/strided_slice_12", "op": "StridedSlice", "input": ["StatefulPartitionedCall/functional_1/lstm_2_1/TensorArrayV2Stack/TensorListStack", "StatefulPartitionedCall/functional_1/time_distributed_1/strided_slice_12/stack", "StatefulPartitionedCall/functional_1/time_distributed_1/strided_slice_12/stack_1", "StatefulPartitionedCall/functional_1/time_distributed_1/strided_slice_12/stack_2"], "attr": {"shrink_axis_mask": {"i": "1"}, "new_axis_mask": {"i": "0"}, "Index": {"type": "DT_INT32"}, "begin_mask": {"i": "0"}, "T": {"type": "DT_FLOAT"}, "end_mask": {"i": "0"}, "ellipsis_mask": {"i": "0"}}}, {"name": "StatefulPartitionedCall/functional_1/time_distributed_1/strided_slice_13", "op": "StridedSlice", "input": ["StatefulPartitionedCall/functional_1/lstm_2_1/TensorArrayV2Stack/TensorListStack", "StatefulPartitionedCall/functional_1/time_distributed_1/strided_slice_13/stack", "StatefulPartitionedCall/functional_1/time_distributed_1/strided_slice_13/stack_1", "StatefulPartitionedCall/functional_1/time_distributed_1/strided_slice_13/stack_2"], "attr": {"shrink_axis_mask": {"i": "1"}, "Index": {"type": "DT_INT32"}, "new_axis_mask": {"i": "0"}, "begin_mask": {"i": "0"}, "end_mask": {"i": "0"}, "T": {"type": "DT_FLOAT"}, "ellipsis_mask": {"i": "0"}}}, {"name": "StatefulPartitionedCall/functional_1/time_distributed_1/strided_slice_26", "op": "StridedSlice", "input": ["StatefulPartitionedCall/functional_1/lstm_2_1/TensorArrayV2Stack/TensorListStack", "StatefulPartitionedCall/functional_1/time_distributed_1/strided_slice_26/stack", "StatefulPartitionedCall/functional_1/time_distributed_1/strided_slice_26/stack_1", "StatefulPartitionedCall/functional_1/time_distributed_1/strided_slice_26/stack_2"], "attr": {"shrink_axis_mask": {"i": "1"}, "Index": {"type": "DT_INT32"}, "new_axis_mask": {"i": "0"}, "begin_mask": {"i": "0"}, "end_mask": {"i": "0"}, "T": {"type": "DT_FLOAT"}, "ellipsis_mask": {"i": "0"}}}, {"name": "StatefulPartitionedCall/functional_1/time_distributed_1/strided_slice_14", "op": "StridedSlice", "input": ["StatefulPartitionedCall/functional_1/lstm_2_1/TensorArrayV2Stack/TensorListStack", "StatefulPartitionedCall/functional_1/time_distributed_1/strided_slice_14/stack", "StatefulPartitionedCall/functional_1/time_distributed_1/strided_slice_14/stack_1", "StatefulPartitionedCall/functional_1/time_distributed_1/strided_slice_14/stack_2"], "attr": {"shrink_axis_mask": {"i": "1"}, "new_axis_mask": {"i": "0"}, "Index": {"type": "DT_INT32"}, "begin_mask": {"i": "0"}, "end_mask": {"i": "0"}, "T": {"type": "DT_FLOAT"}, "ellipsis_mask": {"i": "0"}}}, {"name": "StatefulPartitionedCall/functional_1/time_distributed_1/strided_slice_15", "op": "StridedSlice", "input": ["StatefulPartitionedCall/functional_1/lstm_2_1/TensorArrayV2Stack/TensorListStack", "StatefulPartitionedCall/functional_1/time_distributed_1/strided_slice_15/stack", "StatefulPartitionedCall/functional_1/time_distributed_1/strided_slice_15/stack_1", "StatefulPartitionedCall/functional_1/time_distributed_1/strided_slice_15/stack_2"], "attr": {"shrink_axis_mask": {"i": "1"}, "Index": {"type": "DT_INT32"}, "new_axis_mask": {"i": "0"}, "begin_mask": {"i": "0"}, "end_mask": {"i": "0"}, "T": {"type": "DT_FLOAT"}, "ellipsis_mask": {"i": "0"}}}, {"name": "StatefulPartitionedCall/functional_1/time_distributed_1/strided_slice_16", "op": "StridedSlice", "input": ["StatefulPartitionedCall/functional_1/lstm_2_1/TensorArrayV2Stack/TensorListStack", "StatefulPartitionedCall/functional_1/time_distributed_1/strided_slice_16/stack", "StatefulPartitionedCall/functional_1/time_distributed_1/strided_slice_16/stack_1", "StatefulPartitionedCall/functional_1/time_distributed_1/strided_slice_16/stack_2"], "attr": {"shrink_axis_mask": {"i": "1"}, "Index": {"type": "DT_INT32"}, "new_axis_mask": {"i": "0"}, "begin_mask": {"i": "0"}, "T": {"type": "DT_FLOAT"}, "end_mask": {"i": "0"}, "ellipsis_mask": {"i": "0"}}}, {"name": "StatefulPartitionedCall/functional_1/time_distributed_1/strided_slice_27", "op": "StridedSlice", "input": ["StatefulPartitionedCall/functional_1/lstm_2_1/TensorArrayV2Stack/TensorListStack", "StatefulPartitionedCall/functional_1/time_distributed_1/strided_slice_27/stack", "StatefulPartitionedCall/functional_1/time_distributed_1/strided_slice_27/stack_1", "StatefulPartitionedCall/functional_1/time_distributed_1/strided_slice_27/stack_2"], "attr": {"shrink_axis_mask": {"i": "1"}, "Index": {"type": "DT_INT32"}, "new_axis_mask": {"i": "0"}, "begin_mask": {"i": "0"}, "end_mask": {"i": "0"}, "T": {"type": "DT_FLOAT"}, "ellipsis_mask": {"i": "0"}}}, {"name": "StatefulPartitionedCall/functional_1/time_distributed_1/strided_slice_17", "op": "StridedSlice", "input": ["StatefulPartitionedCall/functional_1/lstm_2_1/TensorArrayV2Stack/TensorListStack", "StatefulPartitionedCall/functional_1/time_distributed_1/strided_slice_17/stack", "StatefulPartitionedCall/functional_1/time_distributed_1/strided_slice_17/stack_1", "StatefulPartitionedCall/functional_1/time_distributed_1/strided_slice_17/stack_2"], "attr": {"shrink_axis_mask": {"i": "1"}, "Index": {"type": "DT_INT32"}, "new_axis_mask": {"i": "0"}, "begin_mask": {"i": "0"}, "end_mask": {"i": "0"}, "T": {"type": "DT_FLOAT"}, "ellipsis_mask": {"i": "0"}}}, {"name": "StatefulPartitionedCall/functional_1/time_distributed_1/strided_slice_18", "op": "StridedSlice", "input": ["StatefulPartitionedCall/functional_1/lstm_2_1/TensorArrayV2Stack/TensorListStack", "StatefulPartitionedCall/functional_1/time_distributed_1/strided_slice_18/stack", "StatefulPartitionedCall/functional_1/time_distributed_1/strided_slice_18/stack_1", "StatefulPartitionedCall/functional_1/time_distributed_1/strided_slice_18/stack_2"], "attr": {"shrink_axis_mask": {"i": "1"}, "new_axis_mask": {"i": "0"}, "Index": {"type": "DT_INT32"}, "begin_mask": {"i": "0"}, "T": {"type": "DT_FLOAT"}, "end_mask": {"i": "0"}, "ellipsis_mask": {"i": "0"}}}, {"name": "StatefulPartitionedCall/functional_1/time_distributed_1/strided_slice_19", "op": "StridedSlice", "input": ["StatefulPartitionedCall/functional_1/lstm_2_1/TensorArrayV2Stack/TensorListStack", "StatefulPartitionedCall/functional_1/time_distributed_1/strided_slice_19/stack", "StatefulPartitionedCall/functional_1/time_distributed_1/strided_slice_19/stack_1", "StatefulPartitionedCall/functional_1/time_distributed_1/strided_slice_19/stack_2"], "attr": {"shrink_axis_mask": {"i": "1"}, "Index": {"type": "DT_INT32"}, "new_axis_mask": {"i": "0"}, "begin_mask": {"i": "0"}, "end_mask": {"i": "0"}, "T": {"type": "DT_FLOAT"}, "ellipsis_mask": {"i": "0"}}}, {"name": "StatefulPartitionedCall/functional_1/time_distributed_1/strided_slice_28", "op": "StridedSlice", "input": ["StatefulPartitionedCall/functional_1/lstm_2_1/TensorArrayV2Stack/TensorListStack", "StatefulPartitionedCall/functional_1/time_distributed_1/strided_slice_28/stack", "StatefulPartitionedCall/functional_1/time_distributed_1/strided_slice_28/stack_1", "StatefulPartitionedCall/functional_1/time_distributed_1/strided_slice_28/stack_2"], "attr": {"shrink_axis_mask": {"i": "1"}, "new_axis_mask": {"i": "0"}, "Index": {"type": "DT_INT32"}, "begin_mask": {"i": "0"}, "end_mask": {"i": "0"}, "T": {"type": "DT_FLOAT"}, "ellipsis_mask": {"i": "0"}}}, {"name": "StatefulPartitionedCall/functional_1/time_distributed_1/strided_slice_20", "op": "StridedSlice", "input": ["StatefulPartitionedCall/functional_1/lstm_2_1/TensorArrayV2Stack/TensorListStack", "StatefulPartitionedCall/functional_1/time_distributed_1/strided_slice_20/stack", "StatefulPartitionedCall/functional_1/time_distributed_1/strided_slice_20/stack_1", "StatefulPartitionedCall/functional_1/time_distributed_1/strided_slice_20/stack_2"], "attr": {"shrink_axis_mask": {"i": "1"}, "new_axis_mask": {"i": "0"}, "Index": {"type": "DT_INT32"}, "begin_mask": {"i": "0"}, "T": {"type": "DT_FLOAT"}, "end_mask": {"i": "0"}, "ellipsis_mask": {"i": "0"}}}, {"name": "StatefulPartitionedCall/functional_1/time_distributed_1/strided_slice_21", "op": "StridedSlice", "input": ["StatefulPartitionedCall/functional_1/lstm_2_1/TensorArrayV2Stack/TensorListStack", "StatefulPartitionedCall/functional_1/time_distributed_1/strided_slice_21/stack", "StatefulPartitionedCall/functional_1/time_distributed_1/strided_slice_21/stack_1", "StatefulPartitionedCall/functional_1/time_distributed_1/strided_slice_21/stack_2"], "attr": {"shrink_axis_mask": {"i": "1"}, "new_axis_mask": {"i": "0"}, "Index": {"type": "DT_INT32"}, "begin_mask": {"i": "0"}, "T": {"type": "DT_FLOAT"}, "end_mask": {"i": "0"}, "ellipsis_mask": {"i": "0"}}}, {"name": "StatefulPartitionedCall/functional_1/time_distributed_1/BiasAdd", "op": "_FusedMatMul", "input": ["StatefulPartitionedCall/functional_1/time_distributed_1/strided_slice_1", "StatefulPartitionedCall/functional_1/time_distributed_1/Cast/ReadVariableOp", "StatefulPartitionedCall/functional_1/time_distributed_1/BiasAdd/ReadVariableOp"], "device": "/device:CPU:0", "attr": {"transpose_a": {"b": false}, "transpose_b": {"b": false}, "fused_ops": {"list": {"s": ["Qmlhc0FkZA=="]}}, "leakyrelu_alpha": {"f": 0.2}, "num_args": {"i": "1"}, "epsilon": {"f": 0.0}, "T": {"type": "DT_FLOAT"}}}, {"name": "StatefulPartitionedCall/functional_1/time_distributed_1/BiasAdd_21", "op": "_FusedMatMul", "input": ["StatefulPartitionedCall/functional_1/time_distributed_1/strided_slice_22", "StatefulPartitionedCall/functional_1/time_distributed_1/Cast_21/ReadVariableOp", "StatefulPartitionedCall/functional_1/time_distributed_1/BiasAdd_21/ReadVariableOp"], "device": "/device:CPU:0", "attr": {"transpose_a": {"b": false}, "transpose_b": {"b": false}, "fused_ops": {"list": {"s": ["Qmlhc0FkZA=="]}}, "num_args": {"i": "1"}, "leakyrelu_alpha": {"f": 0.2}, "epsilon": {"f": 0.0}, "T": {"type": "DT_FLOAT"}}}, {"name": "StatefulPartitionedCall/functional_1/time_distributed_1/BiasAdd_1", "op": "_FusedMatMul", "input": ["StatefulPartitionedCall/functional_1/time_distributed_1/strided_slice_2", "StatefulPartitionedCall/functional_1/time_distributed_1/Cast_1/ReadVariableOp", "StatefulPartitionedCall/functional_1/time_distributed_1/BiasAdd_1/ReadVariableOp"], "device": "/device:CPU:0", "attr": {"transpose_a": {"b": false}, "transpose_b": {"b": false}, "fused_ops": {"list": {"s": ["Qmlhc0FkZA=="]}}, "num_args": {"i": "1"}, "leakyrelu_alpha": {"f": 0.2}, "epsilon": {"f": 0.0}, "T": {"type": "DT_FLOAT"}}}, {"name": "StatefulPartitionedCall/functional_1/time_distributed_1/BiasAdd_28", "op": "_FusedMatMul", "input": ["StatefulPartitionedCall/functional_1/time_distributed_1/strided_slice_29", "StatefulPartitionedCall/functional_1/time_distributed_1/Cast_28/ReadVariableOp", "StatefulPartitionedCall/functional_1/time_distributed_1/BiasAdd_28/ReadVariableOp"], "device": "/device:CPU:0", "attr": {"transpose_a": {"b": false}, "transpose_b": {"b": false}, "fused_ops": {"list": {"s": ["Qmlhc0FkZA=="]}}, "leakyrelu_alpha": {"f": 0.2}, "num_args": {"i": "1"}, "epsilon": {"f": 0.0}, "T": {"type": "DT_FLOAT"}}}, {"name": "StatefulPartitionedCall/functional_1/time_distributed_1/BiasAdd_2", "op": "_FusedMatMul", "input": ["StatefulPartitionedCall/functional_1/time_distributed_1/strided_slice_3", "StatefulPartitionedCall/functional_1/time_distributed_1/Cast_2/ReadVariableOp", "StatefulPartitionedCall/functional_1/time_distributed_1/BiasAdd_2/ReadVariableOp"], "device": "/device:CPU:0", "attr": {"transpose_a": {"b": false}, "transpose_b": {"b": false}, "fused_ops": {"list": {"s": ["Qmlhc0FkZA=="]}}, "leakyrelu_alpha": {"f": 0.2}, "num_args": {"i": "1"}, "epsilon": {"f": 0.0}, "T": {"type": "DT_FLOAT"}}}, {"name": "StatefulPartitionedCall/functional_1/time_distributed_1/BiasAdd_3", "op": "_FusedMatMul", "input": ["StatefulPartitionedCall/functional_1/time_distributed_1/strided_slice_4", "StatefulPartitionedCall/functional_1/time_distributed_1/Cast_3/ReadVariableOp", "StatefulPartitionedCall/functional_1/time_distributed_1/BiasAdd_3/ReadVariableOp"], "device": "/device:CPU:0", "attr": {"transpose_a": {"b": false}, "transpose_b": {"b": false}, "fused_ops": {"list": {"s": ["Qmlhc0FkZA=="]}}, "num_args": {"i": "1"}, "leakyrelu_alpha": {"f": 0.2}, "epsilon": {"f": 0.0}, "T": {"type": "DT_FLOAT"}}}, {"name": "StatefulPartitionedCall/functional_1/time_distributed_1/BiasAdd_22", "op": "_FusedMatMul", "input": ["StatefulPartitionedCall/functional_1/time_distributed_1/strided_slice_23", "StatefulPartitionedCall/functional_1/time_distributed_1/Cast_22/ReadVariableOp", "StatefulPartitionedCall/functional_1/time_distributed_1/BiasAdd_22/ReadVariableOp"], "device": "/device:CPU:0", "attr": {"transpose_a": {"b": false}, "transpose_b": {"b": false}, "fused_ops": {"list": {"s": ["Qmlhc0FkZA=="]}}, "num_args": {"i": "1"}, "leakyrelu_alpha": {"f": 0.2}, "epsilon": {"f": 0.0}, "T": {"type": "DT_FLOAT"}}}, {"name": "StatefulPartitionedCall/functional_1/time_distributed_1/BiasAdd_4", "op": "_FusedMatMul", "input": ["StatefulPartitionedCall/functional_1/time_distributed_1/strided_slice_5", "StatefulPartitionedCall/functional_1/time_distributed_1/Cast_4/ReadVariableOp", "StatefulPartitionedCall/functional_1/time_distributed_1/BiasAdd_4/ReadVariableOp"], "device": "/device:CPU:0", "attr": {"transpose_a": {"b": false}, "transpose_b": {"b": false}, "fused_ops": {"list": {"s": ["Qmlhc0FkZA=="]}}, "num_args": {"i": "1"}, "leakyrelu_alpha": {"f": 0.2}, "epsilon": {"f": 0.0}, "T": {"type": "DT_FLOAT"}}}, {"name": "StatefulPartitionedCall/functional_1/time_distributed_1/BiasAdd_5", "op": "_FusedMatMul", "input": ["StatefulPartitionedCall/functional_1/time_distributed_1/strided_slice_6", "StatefulPartitionedCall/functional_1/time_distributed_1/Cast_5/ReadVariableOp", "StatefulPartitionedCall/functional_1/time_distributed_1/BiasAdd_5/ReadVariableOp"], "device": "/device:CPU:0", "attr": {"transpose_a": {"b": false}, "transpose_b": {"b": false}, "fused_ops": {"list": {"s": ["Qmlhc0FkZA=="]}}, "leakyrelu_alpha": {"f": 0.2}, "num_args": {"i": "1"}, "epsilon": {"f": 0.0}, "T": {"type": "DT_FLOAT"}}}, {"name": "StatefulPartitionedCall/functional_1/time_distributed_1/BiasAdd_6", "op": "_FusedMatMul", "input": ["StatefulPartitionedCall/functional_1/time_distributed_1/strided_slice_7", "StatefulPartitionedCall/functional_1/time_distributed_1/Cast_6/ReadVariableOp", "StatefulPartitionedCall/functional_1/time_distributed_1/BiasAdd_6/ReadVariableOp"], "device": "/device:CPU:0", "attr": {"transpose_a": {"b": false}, "transpose_b": {"b": false}, "fused_ops": {"list": {"s": ["Qmlhc0FkZA=="]}}, "leakyrelu_alpha": {"f": 0.2}, "num_args": {"i": "1"}, "epsilon": {"f": 0.0}, "T": {"type": "DT_FLOAT"}}}, {"name": "StatefulPartitionedCall/functional_1/time_distributed_1/BiasAdd_23", "op": "_FusedMatMul", "input": ["StatefulPartitionedCall/functional_1/time_distributed_1/strided_slice_24", "StatefulPartitionedCall/functional_1/time_distributed_1/Cast_23/ReadVariableOp", "StatefulPartitionedCall/functional_1/time_distributed_1/BiasAdd_23/ReadVariableOp"], "device": "/device:CPU:0", "attr": {"transpose_a": {"b": false}, "transpose_b": {"b": false}, "fused_ops": {"list": {"s": ["Qmlhc0FkZA=="]}}, "leakyrelu_alpha": {"f": 0.2}, "num_args": {"i": "1"}, "epsilon": {"f": 0.0}, "T": {"type": "DT_FLOAT"}}}, {"name": "StatefulPartitionedCall/functional_1/time_distributed_1/BiasAdd_7", "op": "_FusedMatMul", "input": ["StatefulPartitionedCall/functional_1/time_distributed_1/strided_slice_8", "StatefulPartitionedCall/functional_1/time_distributed_1/Cast_7/ReadVariableOp", "StatefulPartitionedCall/functional_1/time_distributed_1/BiasAdd_7/ReadVariableOp"], "device": "/device:CPU:0", "attr": {"transpose_a": {"b": false}, "transpose_b": {"b": false}, "fused_ops": {"list": {"s": ["Qmlhc0FkZA=="]}}, "leakyrelu_alpha": {"f": 0.2}, "num_args": {"i": "1"}, "epsilon": {"f": 0.0}, "T": {"type": "DT_FLOAT"}}}, {"name": "StatefulPartitionedCall/functional_1/time_distributed_1/BiasAdd_8", "op": "_FusedMatMul", "input": ["StatefulPartitionedCall/functional_1/time_distributed_1/strided_slice_9", "StatefulPartitionedCall/functional_1/time_distributed_1/Cast_8/ReadVariableOp", "StatefulPartitionedCall/functional_1/time_distributed_1/BiasAdd_8/ReadVariableOp"], "device": "/device:CPU:0", "attr": {"transpose_a": {"b": false}, "transpose_b": {"b": false}, "fused_ops": {"list": {"s": ["Qmlhc0FkZA=="]}}, "leakyrelu_alpha": {"f": 0.2}, "num_args": {"i": "1"}, "epsilon": {"f": 0.0}, "T": {"type": "DT_FLOAT"}}}, {"name": "StatefulPartitionedCall/functional_1/time_distributed_1/BiasAdd_9", "op": "_FusedMatMul", "input": ["StatefulPartitionedCall/functional_1/time_distributed_1/strided_slice_10", "StatefulPartitionedCall/functional_1/time_distributed_1/Cast_9/ReadVariableOp", "StatefulPartitionedCall/functional_1/time_distributed_1/BiasAdd_9/ReadVariableOp"], "device": "/device:CPU:0", "attr": {"transpose_a": {"b": false}, "transpose_b": {"b": false}, "fused_ops": {"list": {"s": ["Qmlhc0FkZA=="]}}, "num_args": {"i": "1"}, "leakyrelu_alpha": {"f": 0.2}, "epsilon": {"f": 0.0}, "T": {"type": "DT_FLOAT"}}}, {"name": "StatefulPartitionedCall/functional_1/time_distributed_1/BiasAdd_24", "op": "_FusedMatMul", "input": ["StatefulPartitionedCall/functional_1/time_distributed_1/strided_slice_25", "StatefulPartitionedCall/functional_1/time_distributed_1/Cast_24/ReadVariableOp", "StatefulPartitionedCall/functional_1/time_distributed_1/BiasAdd_24/ReadVariableOp"], "device": "/device:CPU:0", "attr": {"transpose_a": {"b": false}, "transpose_b": {"b": false}, "fused_ops": {"list": {"s": ["Qmlhc0FkZA=="]}}, "num_args": {"i": "1"}, "leakyrelu_alpha": {"f": 0.2}, "epsilon": {"f": 0.0}, "T": {"type": "DT_FLOAT"}}}, {"name": "StatefulPartitionedCall/functional_1/time_distributed_1/BiasAdd_10", "op": "_FusedMatMul", "input": ["StatefulPartitionedCall/functional_1/time_distributed_1/strided_slice_11", "StatefulPartitionedCall/functional_1/time_distributed_1/Cast_10/ReadVariableOp", "StatefulPartitionedCall/functional_1/time_distributed_1/BiasAdd_10/ReadVariableOp"], "device": "/device:CPU:0", "attr": {"transpose_a": {"b": false}, "transpose_b": {"b": false}, "fused_ops": {"list": {"s": ["Qmlhc0FkZA=="]}}, "num_args": {"i": "1"}, "leakyrelu_alpha": {"f": 0.2}, "epsilon": {"f": 0.0}, "T": {"type": "DT_FLOAT"}}}, {"name": "StatefulPartitionedCall/functional_1/time_distributed_1/BiasAdd_29", "op": "_FusedMatMul", "input": ["StatefulPartitionedCall/functional_1/time_distributed_1/strided_slice_30", "StatefulPartitionedCall/functional_1/time_distributed_1/Cast_29/ReadVariableOp", "StatefulPartitionedCall/functional_1/time_distributed_1/BiasAdd_29/ReadVariableOp"], "device": "/device:CPU:0", "attr": {"transpose_a": {"b": false}, "transpose_b": {"b": false}, "fused_ops": {"list": {"s": ["Qmlhc0FkZA=="]}}, "leakyrelu_alpha": {"f": 0.2}, "num_args": {"i": "1"}, "epsilon": {"f": 0.0}, "T": {"type": "DT_FLOAT"}}}, {"name": "StatefulPartitionedCall/functional_1/time_distributed_1/BiasAdd_11", "op": "_FusedMatMul", "input": ["StatefulPartitionedCall/functional_1/time_distributed_1/strided_slice_12", "StatefulPartitionedCall/functional_1/time_distributed_1/Cast_11/ReadVariableOp", "StatefulPartitionedCall/functional_1/time_distributed_1/BiasAdd_11/ReadVariableOp"], "device": "/device:CPU:0", "attr": {"transpose_a": {"b": false}, "transpose_b": {"b": false}, "fused_ops": {"list": {"s": ["Qmlhc0FkZA=="]}}, "num_args": {"i": "1"}, "leakyrelu_alpha": {"f": 0.2}, "epsilon": {"f": 0.0}, "T": {"type": "DT_FLOAT"}}}, {"name": "StatefulPartitionedCall/functional_1/time_distributed_1/BiasAdd_12", "op": "_FusedMatMul", "input": ["StatefulPartitionedCall/functional_1/time_distributed_1/strided_slice_13", "StatefulPartitionedCall/functional_1/time_distributed_1/Cast_12/ReadVariableOp", "StatefulPartitionedCall/functional_1/time_distributed_1/BiasAdd_12/ReadVariableOp"], "device": "/device:CPU:0", "attr": {"transpose_a": {"b": false}, "transpose_b": {"b": false}, "fused_ops": {"list": {"s": ["Qmlhc0FkZA=="]}}, "num_args": {"i": "1"}, "leakyrelu_alpha": {"f": 0.2}, "epsilon": {"f": 0.0}, "T": {"type": "DT_FLOAT"}}}, {"name": "StatefulPartitionedCall/functional_1/time_distributed_1/BiasAdd_25", "op": "_FusedMatMul", "input": ["StatefulPartitionedCall/functional_1/time_distributed_1/strided_slice_26", "StatefulPartitionedCall/functional_1/time_distributed_1/Cast_25/ReadVariableOp", "StatefulPartitionedCall/functional_1/time_distributed_1/BiasAdd_25/ReadVariableOp"], "device": "/device:CPU:0", "attr": {"transpose_a": {"b": false}, "transpose_b": {"b": false}, "fused_ops": {"list": {"s": ["Qmlhc0FkZA=="]}}, "num_args": {"i": "1"}, "leakyrelu_alpha": {"f": 0.2}, "epsilon": {"f": 0.0}, "T": {"type": "DT_FLOAT"}}}, {"name": "StatefulPartitionedCall/functional_1/time_distributed_1/BiasAdd_13", "op": "_FusedMatMul", "input": ["StatefulPartitionedCall/functional_1/time_distributed_1/strided_slice_14", "StatefulPartitionedCall/functional_1/time_distributed_1/Cast_13/ReadVariableOp", "StatefulPartitionedCall/functional_1/time_distributed_1/BiasAdd_13/ReadVariableOp"], "device": "/device:CPU:0", "attr": {"transpose_a": {"b": false}, "transpose_b": {"b": false}, "fused_ops": {"list": {"s": ["Qmlhc0FkZA=="]}}, "num_args": {"i": "1"}, "leakyrelu_alpha": {"f": 0.2}, "epsilon": {"f": 0.0}, "T": {"type": "DT_FLOAT"}}}, {"name": "StatefulPartitionedCall/functional_1/time_distributed_1/BiasAdd_14", "op": "_FusedMatMul", "input": ["StatefulPartitionedCall/functional_1/time_distributed_1/strided_slice_15", "StatefulPartitionedCall/functional_1/time_distributed_1/Cast_14/ReadVariableOp", "StatefulPartitionedCall/functional_1/time_distributed_1/BiasAdd_14/ReadVariableOp"], "device": "/device:CPU:0", "attr": {"transpose_a": {"b": false}, "transpose_b": {"b": false}, "fused_ops": {"list": {"s": ["Qmlhc0FkZA=="]}}, "num_args": {"i": "1"}, "leakyrelu_alpha": {"f": 0.2}, "epsilon": {"f": 0.0}, "T": {"type": "DT_FLOAT"}}}, {"name": "StatefulPartitionedCall/functional_1/time_distributed_1/BiasAdd_15", "op": "_FusedMatMul", "input": ["StatefulPartitionedCall/functional_1/time_distributed_1/strided_slice_16", "StatefulPartitionedCall/functional_1/time_distributed_1/Cast_15/ReadVariableOp", "StatefulPartitionedCall/functional_1/time_distributed_1/BiasAdd_15/ReadVariableOp"], "device": "/device:CPU:0", "attr": {"transpose_a": {"b": false}, "transpose_b": {"b": false}, "fused_ops": {"list": {"s": ["Qmlhc0FkZA=="]}}, "leakyrelu_alpha": {"f": 0.2}, "num_args": {"i": "1"}, "epsilon": {"f": 0.0}, "T": {"type": "DT_FLOAT"}}}, {"name": "StatefulPartitionedCall/functional_1/time_distributed_1/BiasAdd_26", "op": "_FusedMatMul", "input": ["StatefulPartitionedCall/functional_1/time_distributed_1/strided_slice_27", "StatefulPartitionedCall/functional_1/time_distributed_1/Cast_26/ReadVariableOp", "StatefulPartitionedCall/functional_1/time_distributed_1/BiasAdd_26/ReadVariableOp"], "device": "/device:CPU:0", "attr": {"transpose_a": {"b": false}, "transpose_b": {"b": false}, "fused_ops": {"list": {"s": ["Qmlhc0FkZA=="]}}, "leakyrelu_alpha": {"f": 0.2}, "num_args": {"i": "1"}, "epsilon": {"f": 0.0}, "T": {"type": "DT_FLOAT"}}}, {"name": "StatefulPartitionedCall/functional_1/time_distributed_1/BiasAdd_16", "op": "_FusedMatMul", "input": ["StatefulPartitionedCall/functional_1/time_distributed_1/strided_slice_17", "StatefulPartitionedCall/functional_1/time_distributed_1/Cast_16/ReadVariableOp", "StatefulPartitionedCall/functional_1/time_distributed_1/BiasAdd_16/ReadVariableOp"], "device": "/device:CPU:0", "attr": {"transpose_a": {"b": false}, "transpose_b": {"b": false}, "fused_ops": {"list": {"s": ["Qmlhc0FkZA=="]}}, "num_args": {"i": "1"}, "leakyrelu_alpha": {"f": 0.2}, "epsilon": {"f": 0.0}, "T": {"type": "DT_FLOAT"}}}, {"name": "StatefulPartitionedCall/functional_1/time_distributed_1/BiasAdd_17", "op": "_FusedMatMul", "input": ["StatefulPartitionedCall/functional_1/time_distributed_1/strided_slice_18", "StatefulPartitionedCall/functional_1/time_distributed_1/Cast_17/ReadVariableOp", "StatefulPartitionedCall/functional_1/time_distributed_1/BiasAdd_17/ReadVariableOp"], "device": "/device:CPU:0", "attr": {"transpose_a": {"b": false}, "transpose_b": {"b": false}, "fused_ops": {"list": {"s": ["Qmlhc0FkZA=="]}}, "leakyrelu_alpha": {"f": 0.2}, "num_args": {"i": "1"}, "epsilon": {"f": 0.0}, "T": {"type": "DT_FLOAT"}}}, {"name": "StatefulPartitionedCall/functional_1/time_distributed_1/BiasAdd_18", "op": "_FusedMatMul", "input": ["StatefulPartitionedCall/functional_1/time_distributed_1/strided_slice_19", "StatefulPartitionedCall/functional_1/time_distributed_1/Cast_18/ReadVariableOp", "StatefulPartitionedCall/functional_1/time_distributed_1/BiasAdd_18/ReadVariableOp"], "device": "/device:CPU:0", "attr": {"transpose_a": {"b": false}, "transpose_b": {"b": false}, "fused_ops": {"list": {"s": ["Qmlhc0FkZA=="]}}, "num_args": {"i": "1"}, "leakyrelu_alpha": {"f": 0.2}, "epsilon": {"f": 0.0}, "T": {"type": "DT_FLOAT"}}}, {"name": "StatefulPartitionedCall/functional_1/time_distributed_1/BiasAdd_27", "op": "_FusedMatMul", "input": ["StatefulPartitionedCall/functional_1/time_distributed_1/strided_slice_28", "StatefulPartitionedCall/functional_1/time_distributed_1/Cast_27/ReadVariableOp", "StatefulPartitionedCall/functional_1/time_distributed_1/BiasAdd_27/ReadVariableOp"], "device": "/device:CPU:0", "attr": {"transpose_a": {"b": false}, "transpose_b": {"b": false}, "fused_ops": {"list": {"s": ["Qmlhc0FkZA=="]}}, "leakyrelu_alpha": {"f": 0.2}, "num_args": {"i": "1"}, "epsilon": {"f": 0.0}, "T": {"type": "DT_FLOAT"}}}, {"name": "StatefulPartitionedCall/functional_1/time_distributed_1/BiasAdd_19", "op": "_FusedMatMul", "input": ["StatefulPartitionedCall/functional_1/time_distributed_1/strided_slice_20", "StatefulPartitionedCall/functional_1/time_distributed_1/Cast_19/ReadVariableOp", "StatefulPartitionedCall/functional_1/time_distributed_1/BiasAdd_19/ReadVariableOp"], "device": "/device:CPU:0", "attr": {"transpose_a": {"b": false}, "transpose_b": {"b": false}, "fused_ops": {"list": {"s": ["Qmlhc0FkZA=="]}}, "leakyrelu_alpha": {"f": 0.2}, "num_args": {"i": "1"}, "epsilon": {"f": 0.0}, "T": {"type": "DT_FLOAT"}}}, {"name": "StatefulPartitionedCall/functional_1/time_distributed_1/BiasAdd_20", "op": "_FusedMatMul", "input": ["StatefulPartitionedCall/functional_1/time_distributed_1/strided_slice_21", "StatefulPartitionedCall/functional_1/time_distributed_1/Cast_20/ReadVariableOp", "StatefulPartitionedCall/functional_1/time_distributed_1/BiasAdd_20/ReadVariableOp"], "device": "/device:CPU:0", "attr": {"transpose_a": {"b": false}, "transpose_b": {"b": false}, "fused_ops": {"list": {"s": ["Qmlhc0FkZA=="]}}, "num_args": {"i": "1"}, "leakyrelu_alpha": {"f": 0.2}, "epsilon": {"f": 0.0}, "T": {"type": "DT_FLOAT"}}}, {"name": "StatefulPartitionedCall/functional_1/time_distributed_1/stack", "op": "Pack", "input": ["StatefulPartitionedCall/functional_1/time_distributed_1/BiasAdd", "StatefulPartitionedCall/functional_1/time_distributed_1/BiasAdd_1", "StatefulPartitionedCall/functional_1/time_distributed_1/BiasAdd_2", "StatefulPartitionedCall/functional_1/time_distributed_1/BiasAdd_3", "StatefulPartitionedCall/functional_1/time_distributed_1/BiasAdd_4", "StatefulPartitionedCall/functional_1/time_distributed_1/BiasAdd_5", "StatefulPartitionedCall/functional_1/time_distributed_1/BiasAdd_6", "StatefulPartitionedCall/functional_1/time_distributed_1/BiasAdd_7", "StatefulPartitionedCall/functional_1/time_distributed_1/BiasAdd_8", "StatefulPartitionedCall/functional_1/time_distributed_1/BiasAdd_9", "StatefulPartitionedCall/functional_1/time_distributed_1/BiasAdd_10", "StatefulPartitionedCall/functional_1/time_distributed_1/BiasAdd_11", "StatefulPartitionedCall/functional_1/time_distributed_1/BiasAdd_12", "StatefulPartitionedCall/functional_1/time_distributed_1/BiasAdd_13", "StatefulPartitionedCall/functional_1/time_distributed_1/BiasAdd_14", "StatefulPartitionedCall/functional_1/time_distributed_1/BiasAdd_15", "StatefulPartitionedCall/functional_1/time_distributed_1/BiasAdd_16", "StatefulPartitionedCall/functional_1/time_distributed_1/BiasAdd_17", "StatefulPartitionedCall/functional_1/time_distributed_1/BiasAdd_18", "StatefulPartitionedCall/functional_1/time_distributed_1/BiasAdd_19", "StatefulPartitionedCall/functional_1/time_distributed_1/BiasAdd_20", "StatefulPartitionedCall/functional_1/time_distributed_1/BiasAdd_21", "StatefulPartitionedCall/functional_1/time_distributed_1/BiasAdd_22", "StatefulPartitionedCall/functional_1/time_distributed_1/BiasAdd_23", "StatefulPartitionedCall/functional_1/time_distributed_1/BiasAdd_24", "StatefulPartitionedCall/functional_1/time_distributed_1/BiasAdd_25", "StatefulPartitionedCall/functional_1/time_distributed_1/BiasAdd_26", "StatefulPartitionedCall/functional_1/time_distributed_1/BiasAdd_27", "StatefulPartitionedCall/functional_1/time_distributed_1/BiasAdd_28", "StatefulPartitionedCall/functional_1/time_distributed_1/BiasAdd_29"], "attr": {"N": {"i": "30"}, "axis": {"i": "0"}, "T": {"type": "DT_FLOAT"}}}, {"name": "StatefulPartitionedCall/functional_1/time_distributed_1/transpose_1", "op": "Transpose", "input": ["StatefulPartitionedCall/functional_1/time_distributed_1/stack", "StatefulPartitionedCall/functional_1/time_distributed_1/transpose_1/perm"], "attr": {"Tperm": {"type": "DT_INT32"}, "T": {"type": "DT_FLOAT"}}}, {"name": "Identity", "op": "Identity", "input": ["StatefulPartitionedCall/functional_1/time_distributed_1/transpose_1"], "attr": {"T": {"type": "DT_FLOAT"}}}], "library": {"function": [{"signature": {"name": "__inference_functional_1_lstm_1_while_cond_17955_frozen_1130", "inputArg": [{"name": "functional_1_lstm_1_while_functional_1_lstm_1_while_loop_counter", "type": "DT_INT32"}, {"name": "functional_1_lstm_1_while_functional_1_lstm_1_max", "type": "DT_INT32"}, {"name": "functional_1_lstm_1_while_placeholder", "type": "DT_INT32"}, {"name": "functional_1_lstm_1_while_placeholder_1", "type": "DT_VARIANT"}, {"name": "functional_1_lstm_1_while_placeholder_2", "type": "DT_FLOAT"}, {"name": "functional_1_lstm_1_while_placeholder_3", "type": "DT_FLOAT"}, {"name": "functional_1_lstm_1_while_functional_1_lstm_1_while_cond_17955___redundant_placeholder0", "type": "DT_VARIANT"}, {"name": "functional_1_lstm_1_while_functional_1_lstm_1_while_cond_17955___redundant_placeholder1", "type": "DT_FLOAT"}, {"name": "functional_1_lstm_1_while_functional_1_lstm_1_while_cond_17955___redundant_placeholder2", "type": "DT_FLOAT"}, {"name": "functional_1_lstm_1_while_functional_1_lstm_1_while_cond_17955___redundant_placeholder3", "type": "DT_FLOAT"}], "outputArg": [{"name": "functional_1_lstm_1_while_identity", "type": "DT_BOOL"}]}, "nodeDef": [{"name": "__inference_functional_1_lstm_1_while_cond_17955_frozen_1130/functional_1/lstm_1/while/Less/y", "op": "Const", "attr": {"value": {"tensor": {"dtype": "DT_INT32", "tensorShape": {}}}, "dtype": {"type": "DT_INT32"}}}, {"name": "functional_1/lstm_1/while/Less_1", "op": "Less", "input": ["functional_1_lstm_1_while_functional_1_lstm_1_while_loop_counter", "functional_1_lstm_1_while_functional_1_lstm_1_max"], "attr": {"T": {"type": "DT_INT32"}}}, {"name": "functional_1/lstm_1/while/Less", "op": "Less", "input": ["functional_1_lstm_1_while_placeholder", "__inference_functional_1_lstm_1_while_cond_17955_frozen_1130/functional_1/lstm_1/while/Less/y:output:0"], "attr": {"T": {"type": "DT_INT32"}}}, {"name": "functional_1/lstm_1/while/LogicalAnd", "op": "LogicalAnd", "input": ["functional_1/lstm_1/while/Less_1:z:0", "functional_1/lstm_1/while/Less:z:0"]}], "ret": {"functional_1_lstm_1_while_identity": "functional_1/lstm_1/while/LogicalAnd:z:0"}, "attr": {"_construction_context": {"s": "a0VhZ2VyUnVudGltZQ=="}}, "argAttr": {"0": {"attr": {"_output_shapes": {"list": {"shape": [{}]}}, "_user_specified_name": {"s": "ZnVuY3Rpb25hbF8xL2xzdG1fMS93aGlsZS9sb29wX2NvdW50ZXI="}}}, "1": {"attr": {"_output_shapes": {"list": {"shape": [{}]}}, "_user_specified_name": {"s": "ZnVuY3Rpb25hbF8xL2xzdG1fMS9NYXg="}}}, "6": {"attr": {"_output_shapes": {"list": {"shape": [{"unknownRank": true}]}}}}, "4": {"attr": {"_output_shapes": {"list": {"shape": [{"dim": [{"size": "-1"}, {"size": "128"}]}]}}}}, "2": {"attr": {"_output_shapes": {"list": {"shape": [{}]}}}}, "3": {"attr": {"_output_shapes": {"list": {"shape": [{}]}}}}, "5": {"attr": {"_output_shapes": {"list": {"shape": [{"dim": [{"size": "-1"}, {"size": "128"}]}]}}}}}}, {"signature": {"name": "__inference_functional_1_lstm_1_2_while_cond_18100_frozen_1128", "inputArg": [{"name": "functional_1_lstm_1_2_while_functional_1_lstm_1_2_while_loop_counter", "type": "DT_INT32"}, {"name": "functional_1_lstm_1_2_while_functional_1_lstm_1_2_max", "type": "DT_INT32"}, {"name": "functional_1_lstm_1_2_while_placeholder", "type": "DT_INT32"}, {"name": "functional_1_lstm_1_2_while_placeholder_1", "type": "DT_VARIANT"}, {"name": "functional_1_lstm_1_2_while_placeholder_2", "type": "DT_FLOAT"}, {"name": "functional_1_lstm_1_2_while_placeholder_3", "type": "DT_FLOAT"}, {"name": "functional_1_lstm_1_2_while_functional_1_lstm_1_2_while_cond_18100___redundant_placeholder0", "type": "DT_VARIANT"}, {"name": "functional_1_lstm_1_2_while_functional_1_lstm_1_2_while_cond_18100___redundant_placeholder1", "type": "DT_FLOAT"}, {"name": "functional_1_lstm_1_2_while_functional_1_lstm_1_2_while_cond_18100___redundant_placeholder2", "type": "DT_FLOAT"}, {"name": "functional_1_lstm_1_2_while_functional_1_lstm_1_2_while_cond_18100___redundant_placeholder3", "type": "DT_FLOAT"}], "outputArg": [{"name": "functional_1_lstm_1_2_while_identity", "type": "DT_BOOL"}]}, "nodeDef": [{"name": "__inference_functional_1_lstm_1_2_while_cond_18100_frozen_1128/functional_1/lstm_1_2/while/Less/y", "op": "Const", "attr": {"value": {"tensor": {"dtype": "DT_INT32", "tensorShape": {}}}, "dtype": {"type": "DT_INT32"}}}, {"name": "functional_1/lstm_1_2/while/Less_1", "op": "Less", "input": ["functional_1_lstm_1_2_while_functional_1_lstm_1_2_while_loop_counter", "functional_1_lstm_1_2_while_functional_1_lstm_1_2_max"], "attr": {"T": {"type": "DT_INT32"}}}, {"name": "functional_1/lstm_1_2/while/Less", "op": "Less", "input": ["functional_1_lstm_1_2_while_placeholder", "__inference_functional_1_lstm_1_2_while_cond_18100_frozen_1128/functional_1/lstm_1_2/while/Less/y:output:0"], "attr": {"T": {"type": "DT_INT32"}}}, {"name": "functional_1/lstm_1_2/while/LogicalAnd", "op": "LogicalAnd", "input": ["functional_1/lstm_1_2/while/Less_1:z:0", "functional_1/lstm_1_2/while/Less:z:0"]}], "ret": {"functional_1_lstm_1_2_while_identity": "functional_1/lstm_1_2/while/LogicalAnd:z:0"}, "attr": {"_construction_context": {"s": "a0VhZ2VyUnVudGltZQ=="}}, "argAttr": {"4": {"attr": {"_output_shapes": {"list": {"shape": [{"dim": [{"size": "-1"}, {"size": "64"}]}]}}}}, "1": {"attr": {"_output_shapes": {"list": {"shape": [{}]}}, "_user_specified_name": {"s": "ZnVuY3Rpb25hbF8xL2xzdG1fMV8yL01heA=="}}}, "0": {"attr": {"_output_shapes": {"list": {"shape": [{}]}}, "_user_specified_name": {"s": "ZnVuY3Rpb25hbF8xL2xzdG1fMV8yL3doaWxlL2xvb3BfY291bnRlcg=="}}}, "6": {"attr": {"_output_shapes": {"list": {"shape": [{"unknownRank": true}]}}}}, "2": {"attr": {"_output_shapes": {"list": {"shape": [{}]}}}}, "3": {"attr": {"_output_shapes": {"list": {"shape": [{}]}}}}, "5": {"attr": {"_output_shapes": {"list": {"shape": [{"dim": [{"size": "-1"}, {"size": "64"}]}]}}}}}}, {"signature": {"name": "__inference_functional_1_lstm_2_1_while_body_18286_frozen_1131", "inputArg": [{"name": "functional_1_lstm_2_1_while_functional_1_lstm_2_1_while_loop_counter", "type": "DT_INT32"}, {"name": "functional_1_lstm_2_1_while_functional_1_lstm_2_1_max", "type": "DT_INT32"}, {"name": "functional_1_lstm_2_1_while_placeholder", "type": "DT_INT32"}, {"name": "functional_1_lstm_2_1_while_placeholder_1", "type": "DT_VARIANT"}, {"name": "functional_1_lstm_2_1_while_placeholder_2", "type": "DT_FLOAT"}, {"name": "functional_1_lstm_2_1_while_placeholder_3", "type": "DT_FLOAT"}, {"name": "functional_1_lstm_2_1_while_tensorarrayv2read_tensorlistgetitem_functional_1_lstm_2_1_tensorarrayunstack_tensorlistfromtensor_0", "type": "DT_VARIANT"}, {"name": "functional_1_lstm_2_1_while_lstm_cell_1_cast_readvariableop_resource_0", "type": "DT_FLOAT"}, {"name": "functional_1_lstm_2_1_while_lstm_cell_1_cast_1_readvariableop_resource_0", "type": "DT_FLOAT"}, {"name": "functional_1_lstm_2_1_while_lstm_cell_1_add_1_readvariableop_resource_0", "type": "DT_FLOAT"}], "outputArg": [{"name": "functional_1_lstm_2_1_while_identity", "type": "DT_INT32"}, {"name": "functional_1_lstm_2_1_while_identity_1", "type": "DT_INT32"}, {"name": "functional_1_lstm_2_1_while_identity_2", "type": "DT_INT32"}, {"name": "functional_1_lstm_2_1_while_identity_3", "type": "DT_VARIANT"}, {"name": "functional_1_lstm_2_1_while_identity_4", "type": "DT_FLOAT"}, {"name": "functional_1_lstm_2_1_while_identity_5", "type": "DT_FLOAT"}, {"name": "functional_1_lstm_2_1_while_tensorarrayv2read_tensorlistgetitem_functional_1_lstm_2_1_tensorarrayunstack_tensorlistfromtensor", "type": "DT_VARIANT"}, {"name": "functional_1_lstm_2_1_while_lstm_cell_1_cast_readvariableop_resource", "type": "DT_FLOAT"}, {"name": "functional_1_lstm_2_1_while_lstm_cell_1_cast_1_readvariableop_resource", "type": "DT_FLOAT"}, {"name": "functional_1_lstm_2_1_while_lstm_cell_1_add_1_readvariableop_resource", "type": "DT_FLOAT"}], "isStateful": true, "controlOutput": ["functional_1/lstm_2_1/while/lstm_cell_1/Cast/ReadVariableOp", "functional_1/lstm_2_1/while/lstm_cell_1/Cast_1/ReadVariableOp", "functional_1/lstm_2_1/while/lstm_cell_1/add_1/ReadVariableOp"]}, "nodeDef": [{"name": "__inference_functional_1_lstm_2_1_while_body_18286_frozen_1131/functional_1/lstm_2_1/while/add/y", "op": "Const", "attr": {"value": {"tensor": {"dtype": "DT_INT32", "tensorShape": {}}}, "dtype": {"type": "DT_INT32"}}}, {"name": "__inference_functional_1_lstm_2_1_while_body_18286_frozen_1131/functional_1/lstm_2_1/while/lstm_cell_1/split/split_dim", "op": "Const", "attr": {"value": {"tensor": {"dtype": "DT_INT32", "tensorShape": {}}}, "dtype": {"type": "DT_INT32"}}}, {"name": "__inference_functional_1_lstm_2_1_while_body_18286_frozen_1131/functional_1/lstm_2_1/while/TensorArrayV2Read/TensorListGetItem/element_shape", "op": "Const", "attr": {"value": {"tensor": {"dtype": "DT_INT32", "tensorShape": {"dim": [{"size": "2"}]}}}, "dtype": {"type": "DT_INT32"}}}, {"name": "__inference_functional_1_lstm_2_1_while_body_18286_frozen_1131/functional_1/lstm_2_1/while/add_1/y", "op": "Const", "attr": {"value": {"tensor": {"dtype": "DT_INT32", "tensorShape": {}}}, "dtype": {"type": "DT_INT32"}}}, {"name": "functional_1/lstm_2_1/while/lstm_cell_1/Cast/ReadVariableOp", "op": "Identity", "input": ["functional_1_lstm_2_1_while_lstm_cell_1_cast_readvariableop_resource_0"], "attr": {"T": {"type": "DT_FLOAT"}}}, {"name": "functional_1/lstm_2_1/while/lstm_cell_1/Cast_1/ReadVariableOp", "op": "Identity", "input": ["functional_1_lstm_2_1_while_lstm_cell_1_cast_1_readvariableop_resource_0"], "attr": {"T": {"type": "DT_FLOAT"}}}, {"name": "functional_1/lstm_2_1/while/lstm_cell_1/add_1/ReadVariableOp", "op": "Identity", "input": ["functional_1_lstm_2_1_while_lstm_cell_1_add_1_readvariableop_resource_0"], "attr": {"T": {"type": "DT_FLOAT"}}}, {"name": "functional_1/lstm_2_1/while/add", "op": "AddV2", "input": ["functional_1_lstm_2_1_while_placeholder", "__inference_functional_1_lstm_2_1_while_body_18286_frozen_1131/functional_1/lstm_2_1/while/add/y:output:0"], "attr": {"T": {"type": "DT_INT32"}}}, {"name": "functional_1/lstm_2_1/while/TensorArrayV2Read/TensorListGetItem", "op": "TensorListGetItem", "input": ["functional_1_lstm_2_1_while_tensorarrayv2read_tensorlistgetitem_functional_1_lstm_2_1_tensorarrayunstack_tensorlistfromtensor_0", "functional_1_lstm_2_1_while_placeholder", "__inference_functional_1_lstm_2_1_while_body_18286_frozen_1131/functional_1/lstm_2_1/while/TensorArrayV2Read/TensorListGetItem/element_shape:output:0"], "attr": {"element_dtype": {"type": "DT_FLOAT"}}}, {"name": "functional_1/lstm_2_1/while/add_1", "op": "AddV2", "input": ["functional_1_lstm_2_1_while_functional_1_lstm_2_1_while_loop_counter", "__inference_functional_1_lstm_2_1_while_body_18286_frozen_1131/functional_1/lstm_2_1/while/add_1/y:output:0"], "attr": {"T": {"type": "DT_INT32"}}}, {"name": "functional_1/lstm_2_1/while/lstm_cell_1/MatMul_1", "op": "MatMul", "input": ["functional_1_lstm_2_1_while_placeholder_2", "functional_1/lstm_2_1/while/lstm_cell_1/Cast_1/ReadVariableOp:output:0"], "attr": {"transpose_a": {"b": false}, "grad_a": {"b": false}, "T": {"type": "DT_FLOAT"}, "grad_b": {"b": false}, "transpose_b": {"b": false}}}, {"name": "functional_1/lstm_2_1/while/NoOp", "op": "NoOp", "input": ["^functional_1/lstm_2_1/while/lstm_cell_1/Cast/ReadVariableOp", "^functional_1/lstm_2_1/while/lstm_cell_1/Cast_1/ReadVariableOp", "^functional_1/lstm_2_1/while/lstm_cell_1/add_1/ReadVariableOp"]}, {"name": "functional_1/lstm_2_1/while/lstm_cell_1/MatMul", "op": "MatMul", "input": ["functional_1/lstm_2_1/while/TensorArrayV2Read/TensorListGetItem:item:0", "functional_1/lstm_2_1/while/lstm_cell_1/Cast/ReadVariableOp:output:0"], "attr": {"grad_a": {"b": false}, "transpose_a": {"b": false}, "T": {"type": "DT_FLOAT"}, "grad_b": {"b": false}, "transpose_b": {"b": false}}}, {"name": "functional_1/lstm_2_1/while/Identity_1", "op": "Identity", "input": ["functional_1_lstm_2_1_while_functional_1_lstm_2_1_max", "^functional_1/lstm_2_1/while/NoOp"], "attr": {"T": {"type": "DT_INT32"}}}, {"name": "functional_1/lstm_2_1/while/Identity_2", "op": "Identity", "input": ["functional_1/lstm_2_1/while/add:z:0", "^functional_1/lstm_2_1/while/NoOp"], "attr": {"T": {"type": "DT_INT32"}}}, {"name": "functional_1/lstm_2_1/while/Identity", "op": "Identity", "input": ["functional_1/lstm_2_1/while/add_1:z:0", "^functional_1/lstm_2_1/while/NoOp"], "attr": {"T": {"type": "DT_INT32"}}}, {"name": "functional_1/lstm_2_1/while/lstm_cell_1/add", "op": "AddV2", "input": ["functional_1/lstm_2_1/while/lstm_cell_1/MatMul:product:0", "functional_1/lstm_2_1/while/lstm_cell_1/MatMul_1:product:0"], "attr": {"T": {"type": "DT_FLOAT"}}}, {"name": "functional_1/lstm_2_1/while/lstm_cell_1/add_1", "op": "AddV2", "input": ["functional_1/lstm_2_1/while/lstm_cell_1/add:z:0", "functional_1/lstm_2_1/while/lstm_cell_1/add_1/ReadVariableOp:output:0"], "attr": {"T": {"type": "DT_FLOAT"}}}, {"name": "functional_1/lstm_2_1/while/lstm_cell_1/split", "op": "Split", "input": ["__inference_functional_1_lstm_2_1_while_body_18286_frozen_1131/functional_1/lstm_2_1/while/lstm_cell_1/split/split_dim:output:0", "functional_1/lstm_2_1/while/lstm_cell_1/add_1:z:0"], "attr": {"num_split": {"i": "4"}, "T": {"type": "DT_FLOAT"}}}, {"name": "functional_1/lstm_2_1/while/lstm_cell_1/Sigmoid", "op": "Sigmoid", "input": ["functional_1/lstm_2_1/while/lstm_cell_1/split:output:0"], "attr": {"T": {"type": "DT_FLOAT"}}}, {"name": "functional_1/lstm_2_1/while/lstm_cell_1/Sigmoid_1", "op": "Sigmoid", "input": ["functional_1/lstm_2_1/while/lstm_cell_1/split:output:1"], "attr": {"T": {"type": "DT_FLOAT"}}}, {"name": "functional_1/lstm_2_1/while/lstm_cell_1/Tanh", "op": "Tanh", "input": ["functional_1/lstm_2_1/while/lstm_cell_1/split:output:2"], "attr": {"T": {"type": "DT_FLOAT"}}}, {"name": "functional_1/lstm_2_1/while/lstm_cell_1/Sigmoid_2", "op": "Sigmoid", "input": ["functional_1/lstm_2_1/while/lstm_cell_1/split:output:3"], "attr": {"T": {"type": "DT_FLOAT"}}}, {"name": "functional_1/lstm_2_1/while/lstm_cell_1/mul", "op": "Mul", "input": ["functional_1/lstm_2_1/while/lstm_cell_1/Sigmoid_1:y:0", "functional_1_lstm_2_1_while_placeholder_3"], "attr": {"T": {"type": "DT_FLOAT"}}}, {"name": "functional_1/lstm_2_1/while/lstm_cell_1/mul_1", "op": "Mul", "input": ["functional_1/lstm_2_1/while/lstm_cell_1/Sigmoid:y:0", "functional_1/lstm_2_1/while/lstm_cell_1/Tanh:y:0"], "attr": {"T": {"type": "DT_FLOAT"}}}, {"name": "functional_1/lstm_2_1/while/lstm_cell_1/add_2", "op": "AddV2", "input": ["functional_1/lstm_2_1/while/lstm_cell_1/mul:z:0", "functional_1/lstm_2_1/while/lstm_cell_1/mul_1:z:0"], "attr": {"T": {"type": "DT_FLOAT"}}}, {"name": "functional_1/lstm_2_1/while/lstm_cell_1/Tanh_1", "op": "Tanh", "input": ["functional_1/lstm_2_1/while/lstm_cell_1/add_2:z:0"], "attr": {"T": {"type": "DT_FLOAT"}}}, {"name": "functional_1/lstm_2_1/while/Identity_5", "op": "Identity", "input": ["functional_1/lstm_2_1/while/lstm_cell_1/add_2:z:0", "^functional_1/lstm_2_1/while/NoOp"], "attr": {"T": {"type": "DT_FLOAT"}}}, {"name": "functional_1/lstm_2_1/while/lstm_cell_1/mul_2", "op": "Mul", "input": ["functional_1/lstm_2_1/while/lstm_cell_1/Sigmoid_2:y:0", "functional_1/lstm_2_1/while/lstm_cell_1/Tanh_1:y:0"], "attr": {"T": {"type": "DT_FLOAT"}}}, {"name": "functional_1/lstm_2_1/while/TensorArrayV2Write/TensorListSetItem", "op": "TensorListSetItem", "input": ["functional_1_lstm_2_1_while_placeholder_1", "functional_1_lstm_2_1_while_placeholder", "functional_1/lstm_2_1/while/lstm_cell_1/mul_2:z:0"], "attr": {"element_dtype": {"type": "DT_FLOAT"}, "resize_if_index_out_of_bounds": {"b": false}}, "experimentalType": {"typeId": "TFT_PRODUCT", "args": [{"typeId": "TFT_ARRAY", "args": [{"typeId": "TFT_TENSOR", "args": [{"typeId": "TFT_FLOAT"}]}]}]}}, {"name": "functional_1/lstm_2_1/while/Identity_4", "op": "Identity", "input": ["functional_1/lstm_2_1/while/lstm_cell_1/mul_2:z:0", "^functional_1/lstm_2_1/while/NoOp"], "attr": {"T": {"type": "DT_FLOAT"}}}, {"name": "functional_1/lstm_2_1/while/Identity_3", "op": "Identity", "input": ["functional_1/lstm_2_1/while/TensorArrayV2Write/TensorListSetItem:output_handle:0", "^functional_1/lstm_2_1/while/NoOp"], "attr": {"T": {"type": "DT_VARIANT"}}}], "ret": {"functional_1_lstm_2_1_while_lstm_cell_1_cast_readvariableop_resource": "functional_1_lstm_2_1_while_lstm_cell_1_cast_readvariableop_resource_0", "functional_1_lstm_2_1_while_identity_1": "functional_1/lstm_2_1/while/Identity_1:output:0", "functional_1_lstm_2_1_while_tensorarrayv2read_tensorlistgetitem_functional_1_lstm_2_1_tensorarrayunstack_tensorlistfromtensor": "functional_1_lstm_2_1_while_tensorarrayv2read_tensorlistgetitem_functional_1_lstm_2_1_tensorarrayunstack_tensorlistfromtensor_0", "functional_1_lstm_2_1_while_identity_5": "functional_1/lstm_2_1/while/Identity_5:output:0", "functional_1_lstm_2_1_while_identity_4": "functional_1/lstm_2_1/while/Identity_4:output:0", "functional_1_lstm_2_1_while_identity_2": "functional_1/lstm_2_1/while/Identity_2:output:0", "functional_1_lstm_2_1_while_lstm_cell_1_cast_1_readvariableop_resource": "functional_1_lstm_2_1_while_lstm_cell_1_cast_1_readvariableop_resource_0", "functional_1_lstm_2_1_while_identity_3": "functional_1/lstm_2_1/while/Identity_3:output:0", "functional_1_lstm_2_1_while_lstm_cell_1_add_1_readvariableop_resource": "functional_1_lstm_2_1_while_lstm_cell_1_add_1_readvariableop_resource_0", "functional_1_lstm_2_1_while_identity": "functional_1/lstm_2_1/while/Identity:output:0"}, "attr": {"_construction_context": {"s": "a0VhZ2VyUnVudGltZQ=="}}, "controlRet": {"functional_1/lstm_2_1/while/lstm_cell_1/Cast_1/ReadVariableOp": "functional_1/lstm_2_1/while/lstm_cell_1/Cast_1/ReadVariableOp", "functional_1/lstm_2_1/while/lstm_cell_1/add_1/ReadVariableOp": "functional_1/lstm_2_1/while/lstm_cell_1/add_1/ReadVariableOp", "functional_1/lstm_2_1/while/lstm_cell_1/Cast/ReadVariableOp": "functional_1/lstm_2_1/while/lstm_cell_1/Cast/ReadVariableOp"}, "argAttr": {"9": {"attr": {"_user_specified_name": {"s": "cmVzb3VyY2U="}}}, "0": {"attr": {"_output_shapes": {"list": {"shape": [{}]}}, "_user_specified_name": {"s": "ZnVuY3Rpb25hbF8xL2xzdG1fMl8xL3doaWxlL2xvb3BfY291bnRlcg=="}}}, "1": {"attr": {"_output_shapes": {"list": {"shape": [{}]}}, "_user_specified_name": {"s": "ZnVuY3Rpb25hbF8xL2xzdG1fMl8xL01heA=="}}}, "7": {"attr": {"_user_specified_name": {"s": "cmVzb3VyY2U="}}}, "4": {"attr": {"_output_shapes": {"list": {"shape": [{"dim": [{"size": "-1"}, {"size": "128"}]}]}}}}, "6": {"attr": {"_output_shapes": {"list": {"shape": [{}]}}, "_user_specified_name": {"s": "ZnVuY3Rpb25hbF8xL2xzdG1fMl8xL1RlbnNvckFycmF5VW5zdGFjay9UZW5zb3JMaXN0RnJvbVRlbnNvcg=="}}}, "2": {"attr": {"_output_shapes": {"list": {"shape": [{}]}}}}, "8": {"attr": {"_user_specified_name": {"s": "cmVzb3VyY2U="}}}, "3": {"attr": {"_output_shapes": {"list": {"shape": [{}]}}}}, "5": {"attr": {"_output_shapes": {"list": {"shape": [{"dim": [{"size": "-1"}, {"size": "128"}]}]}}}}}}, {"signature": {"name": "__inference_functional_1_lstm_1_while_body_17956_frozen_1127", "inputArg": [{"name": "functional_1_lstm_1_while_functional_1_lstm_1_while_loop_counter", "type": "DT_INT32"}, {"name": "functional_1_lstm_1_while_functional_1_lstm_1_max", "type": "DT_INT32"}, {"name": "functional_1_lstm_1_while_placeholder", "type": "DT_INT32"}, {"name": "functional_1_lstm_1_while_placeholder_1", "type": "DT_VARIANT"}, {"name": "functional_1_lstm_1_while_placeholder_2", "type": "DT_FLOAT"}, {"name": "functional_1_lstm_1_while_placeholder_3", "type": "DT_FLOAT"}, {"name": "functional_1_lstm_1_while_tensorarrayv2read_tensorlistgetitem_functional_1_lstm_1_tensorarrayunstack_tensorlistfromtensor_0", "type": "DT_VARIANT"}, {"name": "functional_1_lstm_1_while_lstm_cell_1_cast_readvariableop_resource_0", "type": "DT_FLOAT"}, {"name": "functional_1_lstm_1_while_lstm_cell_1_cast_1_readvariableop_resource_0", "type": "DT_FLOAT"}, {"name": "functional_1_lstm_1_while_lstm_cell_1_add_1_readvariableop_resource_0", "type": "DT_FLOAT"}], "outputArg": [{"name": "functional_1_lstm_1_while_identity", "type": "DT_INT32"}, {"name": "functional_1_lstm_1_while_identity_1", "type": "DT_INT32"}, {"name": "functional_1_lstm_1_while_identity_2", "type": "DT_INT32"}, {"name": "functional_1_lstm_1_while_identity_3", "type": "DT_VARIANT"}, {"name": "functional_1_lstm_1_while_identity_4", "type": "DT_FLOAT"}, {"name": "functional_1_lstm_1_while_identity_5", "type": "DT_FLOAT"}, {"name": "functional_1_lstm_1_while_tensorarrayv2read_tensorlistgetitem_functional_1_lstm_1_tensorarrayunstack_tensorlistfromtensor", "type": "DT_VARIANT"}, {"name": "functional_1_lstm_1_while_lstm_cell_1_cast_readvariableop_resource", "type": "DT_FLOAT"}, {"name": "functional_1_lstm_1_while_lstm_cell_1_cast_1_readvariableop_resource", "type": "DT_FLOAT"}, {"name": "functional_1_lstm_1_while_lstm_cell_1_add_1_readvariableop_resource", "type": "DT_FLOAT"}], "isStateful": true, "controlOutput": ["functional_1/lstm_1/while/lstm_cell_1/Cast/ReadVariableOp", "functional_1/lstm_1/while/lstm_cell_1/Cast_1/ReadVariableOp", "functional_1/lstm_1/while/lstm_cell_1/add_1/ReadVariableOp"]}, "nodeDef": [{"name": "__inference_functional_1_lstm_1_while_body_17956_frozen_1127/functional_1/lstm_1/while/add/y", "op": "Const", "attr": {"value": {"tensor": {"dtype": "DT_INT32", "tensorShape": {}}}, "dtype": {"type": "DT_INT32"}}}, {"name": "__inference_functional_1_lstm_1_while_body_17956_frozen_1127/functional_1/lstm_1/while/lstm_cell_1/split/split_dim", "op": "Const", "attr": {"value": {"tensor": {"dtype": "DT_INT32", "tensorShape": {}}}, "dtype": {"type": "DT_INT32"}}}, {"name": "__inference_functional_1_lstm_1_while_body_17956_frozen_1127/functional_1/lstm_1/while/TensorArrayV2Read/TensorListGetItem/element_shape", "op": "Const", "attr": {"value": {"tensor": {"dtype": "DT_INT32", "tensorShape": {"dim": [{"size": "2"}]}}}, "dtype": {"type": "DT_INT32"}}}, {"name": "__inference_functional_1_lstm_1_while_body_17956_frozen_1127/functional_1/lstm_1/while/add_1/y", "op": "Const", "attr": {"value": {"tensor": {"dtype": "DT_INT32", "tensorShape": {}}}, "dtype": {"type": "DT_INT32"}}}, {"name": "functional_1/lstm_1/while/lstm_cell_1/Cast/ReadVariableOp", "op": "Identity", "input": ["functional_1_lstm_1_while_lstm_cell_1_cast_readvariableop_resource_0"], "attr": {"T": {"type": "DT_FLOAT"}}}, {"name": "functional_1/lstm_1/while/lstm_cell_1/Cast_1/ReadVariableOp", "op": "Identity", "input": ["functional_1_lstm_1_while_lstm_cell_1_cast_1_readvariableop_resource_0"], "attr": {"T": {"type": "DT_FLOAT"}}}, {"name": "functional_1/lstm_1/while/lstm_cell_1/add_1/ReadVariableOp", "op": "Identity", "input": ["functional_1_lstm_1_while_lstm_cell_1_add_1_readvariableop_resource_0"], "attr": {"T": {"type": "DT_FLOAT"}}}, {"name": "functional_1/lstm_1/while/add", "op": "AddV2", "input": ["functional_1_lstm_1_while_placeholder", "__inference_functional_1_lstm_1_while_body_17956_frozen_1127/functional_1/lstm_1/while/add/y:output:0"], "attr": {"T": {"type": "DT_INT32"}}}, {"name": "functional_1/lstm_1/while/TensorArrayV2Read/TensorListGetItem", "op": "TensorListGetItem", "input": ["functional_1_lstm_1_while_tensorarrayv2read_tensorlistgetitem_functional_1_lstm_1_tensorarrayunstack_tensorlistfromtensor_0", "functional_1_lstm_1_while_placeholder", "__inference_functional_1_lstm_1_while_body_17956_frozen_1127/functional_1/lstm_1/while/TensorArrayV2Read/TensorListGetItem/element_shape:output:0"], "attr": {"element_dtype": {"type": "DT_FLOAT"}}}, {"name": "functional_1/lstm_1/while/add_1", "op": "AddV2", "input": ["functional_1_lstm_1_while_functional_1_lstm_1_while_loop_counter", "__inference_functional_1_lstm_1_while_body_17956_frozen_1127/functional_1/lstm_1/while/add_1/y:output:0"], "attr": {"T": {"type": "DT_INT32"}}}, {"name": "functional_1/lstm_1/while/lstm_cell_1/MatMul_1", "op": "MatMul", "input": ["functional_1_lstm_1_while_placeholder_2", "functional_1/lstm_1/while/lstm_cell_1/Cast_1/ReadVariableOp:output:0"], "attr": {"grad_a": {"b": false}, "transpose_a": {"b": false}, "T": {"type": "DT_FLOAT"}, "grad_b": {"b": false}, "transpose_b": {"b": false}}}, {"name": "functional_1/lstm_1/while/NoOp", "op": "NoOp", "input": ["^functional_1/lstm_1/while/lstm_cell_1/Cast/ReadVariableOp", "^functional_1/lstm_1/while/lstm_cell_1/Cast_1/ReadVariableOp", "^functional_1/lstm_1/while/lstm_cell_1/add_1/ReadVariableOp"]}, {"name": "functional_1/lstm_1/while/lstm_cell_1/MatMul", "op": "MatMul", "input": ["functional_1/lstm_1/while/TensorArrayV2Read/TensorListGetItem:item:0", "functional_1/lstm_1/while/lstm_cell_1/Cast/ReadVariableOp:output:0"], "attr": {"grad_a": {"b": false}, "transpose_a": {"b": false}, "T": {"type": "DT_FLOAT"}, "grad_b": {"b": false}, "transpose_b": {"b": false}}}, {"name": "functional_1/lstm_1/while/Identity_1", "op": "Identity", "input": ["functional_1_lstm_1_while_functional_1_lstm_1_max", "^functional_1/lstm_1/while/NoOp"], "attr": {"T": {"type": "DT_INT32"}}}, {"name": "functional_1/lstm_1/while/Identity_2", "op": "Identity", "input": ["functional_1/lstm_1/while/add:z:0", "^functional_1/lstm_1/while/NoOp"], "attr": {"T": {"type": "DT_INT32"}}}, {"name": "functional_1/lstm_1/while/Identity", "op": "Identity", "input": ["functional_1/lstm_1/while/add_1:z:0", "^functional_1/lstm_1/while/NoOp"], "attr": {"T": {"type": "DT_INT32"}}}, {"name": "functional_1/lstm_1/while/lstm_cell_1/add", "op": "AddV2", "input": ["functional_1/lstm_1/while/lstm_cell_1/MatMul:product:0", "functional_1/lstm_1/while/lstm_cell_1/MatMul_1:product:0"], "attr": {"T": {"type": "DT_FLOAT"}}}, {"name": "functional_1/lstm_1/while/lstm_cell_1/add_1", "op": "AddV2", "input": ["functional_1/lstm_1/while/lstm_cell_1/add:z:0", "functional_1/lstm_1/while/lstm_cell_1/add_1/ReadVariableOp:output:0"], "attr": {"T": {"type": "DT_FLOAT"}}}, {"name": "functional_1/lstm_1/while/lstm_cell_1/split", "op": "Split", "input": ["__inference_functional_1_lstm_1_while_body_17956_frozen_1127/functional_1/lstm_1/while/lstm_cell_1/split/split_dim:output:0", "functional_1/lstm_1/while/lstm_cell_1/add_1:z:0"], "attr": {"num_split": {"i": "4"}, "T": {"type": "DT_FLOAT"}}}, {"name": "functional_1/lstm_1/while/lstm_cell_1/Sigmoid", "op": "Sigmoid", "input": ["functional_1/lstm_1/while/lstm_cell_1/split:output:0"], "attr": {"T": {"type": "DT_FLOAT"}}}, {"name": "functional_1/lstm_1/while/lstm_cell_1/Sigmoid_1", "op": "Sigmoid", "input": ["functional_1/lstm_1/while/lstm_cell_1/split:output:1"], "attr": {"T": {"type": "DT_FLOAT"}}}, {"name": "functional_1/lstm_1/while/lstm_cell_1/Tanh", "op": "Tanh", "input": ["functional_1/lstm_1/while/lstm_cell_1/split:output:2"], "attr": {"T": {"type": "DT_FLOAT"}}}, {"name": "functional_1/lstm_1/while/lstm_cell_1/Sigmoid_2", "op": "Sigmoid", "input": ["functional_1/lstm_1/while/lstm_cell_1/split:output:3"], "attr": {"T": {"type": "DT_FLOAT"}}}, {"name": "functional_1/lstm_1/while/lstm_cell_1/mul", "op": "Mul", "input": ["functional_1/lstm_1/while/lstm_cell_1/Sigmoid_1:y:0", "functional_1_lstm_1_while_placeholder_3"], "attr": {"T": {"type": "DT_FLOAT"}}}, {"name": "functional_1/lstm_1/while/lstm_cell_1/mul_1", "op": "Mul", "input": ["functional_1/lstm_1/while/lstm_cell_1/Sigmoid:y:0", "functional_1/lstm_1/while/lstm_cell_1/Tanh:y:0"], "attr": {"T": {"type": "DT_FLOAT"}}}, {"name": "functional_1/lstm_1/while/lstm_cell_1/add_2", "op": "AddV2", "input": ["functional_1/lstm_1/while/lstm_cell_1/mul:z:0", "functional_1/lstm_1/while/lstm_cell_1/mul_1:z:0"], "attr": {"T": {"type": "DT_FLOAT"}}}, {"name": "functional_1/lstm_1/while/lstm_cell_1/Tanh_1", "op": "Tanh", "input": ["functional_1/lstm_1/while/lstm_cell_1/add_2:z:0"], "attr": {"T": {"type": "DT_FLOAT"}}}, {"name": "functional_1/lstm_1/while/Identity_5", "op": "Identity", "input": ["functional_1/lstm_1/while/lstm_cell_1/add_2:z:0", "^functional_1/lstm_1/while/NoOp"], "attr": {"T": {"type": "DT_FLOAT"}}}, {"name": "functional_1/lstm_1/while/lstm_cell_1/mul_2", "op": "Mul", "input": ["functional_1/lstm_1/while/lstm_cell_1/Sigmoid_2:y:0", "functional_1/lstm_1/while/lstm_cell_1/Tanh_1:y:0"], "attr": {"T": {"type": "DT_FLOAT"}}}, {"name": "functional_1/lstm_1/while/TensorArrayV2Write/TensorListSetItem", "op": "TensorListSetItem", "input": ["functional_1_lstm_1_while_placeholder_1", "functional_1_lstm_1_while_placeholder", "functional_1/lstm_1/while/lstm_cell_1/mul_2:z:0"], "attr": {"element_dtype": {"type": "DT_FLOAT"}, "resize_if_index_out_of_bounds": {"b": false}}, "experimentalType": {"typeId": "TFT_PRODUCT", "args": [{"typeId": "TFT_ARRAY", "args": [{"typeId": "TFT_TENSOR", "args": [{"typeId": "TFT_FLOAT"}]}]}]}}, {"name": "functional_1/lstm_1/while/Identity_4", "op": "Identity", "input": ["functional_1/lstm_1/while/lstm_cell_1/mul_2:z:0", "^functional_1/lstm_1/while/NoOp"], "attr": {"T": {"type": "DT_FLOAT"}}}, {"name": "functional_1/lstm_1/while/Identity_3", "op": "Identity", "input": ["functional_1/lstm_1/while/TensorArrayV2Write/TensorListSetItem:output_handle:0", "^functional_1/lstm_1/while/NoOp"], "attr": {"T": {"type": "DT_VARIANT"}}}], "ret": {"functional_1_lstm_1_while_identity_1": "functional_1/lstm_1/while/Identity_1:output:0", "functional_1_lstm_1_while_identity_4": "functional_1/lstm_1/while/Identity_4:output:0", "functional_1_lstm_1_while_lstm_cell_1_cast_1_readvariableop_resource": "functional_1_lstm_1_while_lstm_cell_1_cast_1_readvariableop_resource_0", "functional_1_lstm_1_while_identity_2": "functional_1/lstm_1/while/Identity_2:output:0", "functional_1_lstm_1_while_identity": "functional_1/lstm_1/while/Identity:output:0", "functional_1_lstm_1_while_lstm_cell_1_add_1_readvariableop_resource": "functional_1_lstm_1_while_lstm_cell_1_add_1_readvariableop_resource_0", "functional_1_lstm_1_while_tensorarrayv2read_tensorlistgetitem_functional_1_lstm_1_tensorarrayunstack_tensorlistfromtensor": "functional_1_lstm_1_while_tensorarrayv2read_tensorlistgetitem_functional_1_lstm_1_tensorarrayunstack_tensorlistfromtensor_0", "functional_1_lstm_1_while_lstm_cell_1_cast_readvariableop_resource": "functional_1_lstm_1_while_lstm_cell_1_cast_readvariableop_resource_0", "functional_1_lstm_1_while_identity_5": "functional_1/lstm_1/while/Identity_5:output:0", "functional_1_lstm_1_while_identity_3": "functional_1/lstm_1/while/Identity_3:output:0"}, "attr": {"_construction_context": {"s": "a0VhZ2VyUnVudGltZQ=="}}, "controlRet": {"functional_1/lstm_1/while/lstm_cell_1/add_1/ReadVariableOp": "functional_1/lstm_1/while/lstm_cell_1/add_1/ReadVariableOp", "functional_1/lstm_1/while/lstm_cell_1/Cast_1/ReadVariableOp": "functional_1/lstm_1/while/lstm_cell_1/Cast_1/ReadVariableOp", "functional_1/lstm_1/while/lstm_cell_1/Cast/ReadVariableOp": "functional_1/lstm_1/while/lstm_cell_1/Cast/ReadVariableOp"}, "argAttr": {"9": {"attr": {"_user_specified_name": {"s": "cmVzb3VyY2U="}}}, "4": {"attr": {"_output_shapes": {"list": {"shape": [{"dim": [{"size": "-1"}, {"size": "128"}]}]}}}}, "1": {"attr": {"_output_shapes": {"list": {"shape": [{}]}}, "_user_specified_name": {"s": "ZnVuY3Rpb25hbF8xL2xzdG1fMS9NYXg="}}}, "7": {"attr": {"_user_specified_name": {"s": "cmVzb3VyY2U="}}}, "6": {"attr": {"_output_shapes": {"list": {"shape": [{}]}}, "_user_specified_name": {"s": "ZnVuY3Rpb25hbF8xL2xzdG1fMS9UZW5zb3JBcnJheVVuc3RhY2svVGVuc29yTGlzdEZyb21UZW5zb3I="}}}, "0": {"attr": {"_output_shapes": {"list": {"shape": [{}]}}, "_user_specified_name": {"s": "ZnVuY3Rpb25hbF8xL2xzdG1fMS93aGlsZS9sb29wX2NvdW50ZXI="}}}, "2": {"attr": {"_output_shapes": {"list": {"shape": [{}]}}}}, "8": {"attr": {"_user_specified_name": {"s": "cmVzb3VyY2U="}}}, "3": {"attr": {"_output_shapes": {"list": {"shape": [{}]}}}}, "5": {"attr": {"_output_shapes": {"list": {"shape": [{"dim": [{"size": "-1"}, {"size": "128"}]}]}}}}}}, {"signature": {"name": "__inference_functional_1_lstm_1_2_while_body_18101_frozen_1129", "inputArg": [{"name": "functional_1_lstm_1_2_while_functional_1_lstm_1_2_while_loop_counter", "type": "DT_INT32"}, {"name": "functional_1_lstm_1_2_while_functional_1_lstm_1_2_max", "type": "DT_INT32"}, {"name": "functional_1_lstm_1_2_while_placeholder", "type": "DT_INT32"}, {"name": "functional_1_lstm_1_2_while_placeholder_1", "type": "DT_VARIANT"}, {"name": "functional_1_lstm_1_2_while_placeholder_2", "type": "DT_FLOAT"}, {"name": "functional_1_lstm_1_2_while_placeholder_3", "type": "DT_FLOAT"}, {"name": "functional_1_lstm_1_2_while_tensorarrayv2read_tensorlistgetitem_functional_1_lstm_1_2_tensorarrayunstack_tensorlistfromtensor_0", "type": "DT_VARIANT"}, {"name": "functional_1_lstm_1_2_while_lstm_cell_1_cast_readvariableop_resource_0", "type": "DT_FLOAT"}, {"name": "functional_1_lstm_1_2_while_lstm_cell_1_cast_1_readvariableop_resource_0", "type": "DT_FLOAT"}, {"name": "functional_1_lstm_1_2_while_lstm_cell_1_add_1_readvariableop_resource_0", "type": "DT_FLOAT"}], "outputArg": [{"name": "functional_1_lstm_1_2_while_identity", "type": "DT_INT32"}, {"name": "functional_1_lstm_1_2_while_identity_1", "type": "DT_INT32"}, {"name": "functional_1_lstm_1_2_while_identity_2", "type": "DT_INT32"}, {"name": "functional_1_lstm_1_2_while_identity_3", "type": "DT_VARIANT"}, {"name": "functional_1_lstm_1_2_while_identity_4", "type": "DT_FLOAT"}, {"name": "functional_1_lstm_1_2_while_identity_5", "type": "DT_FLOAT"}, {"name": "functional_1_lstm_1_2_while_tensorarrayv2read_tensorlistgetitem_functional_1_lstm_1_2_tensorarrayunstack_tensorlistfromtensor", "type": "DT_VARIANT"}, {"name": "functional_1_lstm_1_2_while_lstm_cell_1_cast_readvariableop_resource", "type": "DT_FLOAT"}, {"name": "functional_1_lstm_1_2_while_lstm_cell_1_cast_1_readvariableop_resource", "type": "DT_FLOAT"}, {"name": "functional_1_lstm_1_2_while_lstm_cell_1_add_1_readvariableop_resource", "type": "DT_FLOAT"}], "isStateful": true, "controlOutput": ["functional_1/lstm_1_2/while/lstm_cell_1/Cast/ReadVariableOp", "functional_1/lstm_1_2/while/lstm_cell_1/Cast_1/ReadVariableOp", "functional_1/lstm_1_2/while/lstm_cell_1/add_1/ReadVariableOp"]}, "nodeDef": [{"name": "__inference_functional_1_lstm_1_2_while_body_18101_frozen_1129/functional_1/lstm_1_2/while/add/y", "op": "Const", "attr": {"value": {"tensor": {"dtype": "DT_INT32", "tensorShape": {}}}, "dtype": {"type": "DT_INT32"}}}, {"name": "__inference_functional_1_lstm_1_2_while_body_18101_frozen_1129/functional_1/lstm_1_2/while/TensorArrayV2Write/TensorListSetItem/index", "op": "Const", "attr": {"value": {"tensor": {"dtype": "DT_INT32", "tensorShape": {}}}, "dtype": {"type": "DT_INT32"}}}, {"name": "__inference_functional_1_lstm_1_2_while_body_18101_frozen_1129/functional_1/lstm_1_2/while/lstm_cell_1/split/split_dim", "op": "Const", "attr": {"value": {"tensor": {"dtype": "DT_INT32", "tensorShape": {}}}, "dtype": {"type": "DT_INT32"}}}, {"name": "__inference_functional_1_lstm_1_2_while_body_18101_frozen_1129/functional_1/lstm_1_2/while/TensorArrayV2Read/TensorListGetItem/element_shape", "op": "Const", "attr": {"value": {"tensor": {"dtype": "DT_INT32", "tensorShape": {"dim": [{"size": "2"}]}}}, "dtype": {"type": "DT_INT32"}}}, {"name": "__inference_functional_1_lstm_1_2_while_body_18101_frozen_1129/functional_1/lstm_1_2/while/add_1/y", "op": "Const", "attr": {"value": {"tensor": {"dtype": "DT_INT32", "tensorShape": {}}}, "dtype": {"type": "DT_INT32"}}}, {"name": "functional_1/lstm_1_2/while/lstm_cell_1/Cast/ReadVariableOp", "op": "Identity", "input": ["functional_1_lstm_1_2_while_lstm_cell_1_cast_readvariableop_resource_0"], "attr": {"T": {"type": "DT_FLOAT"}}}, {"name": "functional_1/lstm_1_2/while/lstm_cell_1/Cast_1/ReadVariableOp", "op": "Identity", "input": ["functional_1_lstm_1_2_while_lstm_cell_1_cast_1_readvariableop_resource_0"], "attr": {"T": {"type": "DT_FLOAT"}}}, {"name": "functional_1/lstm_1_2/while/lstm_cell_1/add_1/ReadVariableOp", "op": "Identity", "input": ["functional_1_lstm_1_2_while_lstm_cell_1_add_1_readvariableop_resource_0"], "attr": {"T": {"type": "DT_FLOAT"}}}, {"name": "functional_1/lstm_1_2/while/add", "op": "AddV2", "input": ["functional_1_lstm_1_2_while_placeholder", "__inference_functional_1_lstm_1_2_while_body_18101_frozen_1129/functional_1/lstm_1_2/while/add/y:output:0"], "attr": {"T": {"type": "DT_INT32"}}}, {"name": "functional_1/lstm_1_2/while/TensorArrayV2Read/TensorListGetItem", "op": "TensorListGetItem", "input": ["functional_1_lstm_1_2_while_tensorarrayv2read_tensorlistgetitem_functional_1_lstm_1_2_tensorarrayunstack_tensorlistfromtensor_0", "functional_1_lstm_1_2_while_placeholder", "__inference_functional_1_lstm_1_2_while_body_18101_frozen_1129/functional_1/lstm_1_2/while/TensorArrayV2Read/TensorListGetItem/element_shape:output:0"], "attr": {"element_dtype": {"type": "DT_FLOAT"}}}, {"name": "functional_1/lstm_1_2/while/add_1", "op": "AddV2", "input": ["functional_1_lstm_1_2_while_functional_1_lstm_1_2_while_loop_counter", "__inference_functional_1_lstm_1_2_while_body_18101_frozen_1129/functional_1/lstm_1_2/while/add_1/y:output:0"], "attr": {"T": {"type": "DT_INT32"}}}, {"name": "functional_1/lstm_1_2/while/lstm_cell_1/MatMul_1", "op": "MatMul", "input": ["functional_1_lstm_1_2_while_placeholder_2", "functional_1/lstm_1_2/while/lstm_cell_1/Cast_1/ReadVariableOp:output:0"], "attr": {"grad_a": {"b": false}, "transpose_a": {"b": false}, "T": {"type": "DT_FLOAT"}, "grad_b": {"b": false}, "transpose_b": {"b": false}}}, {"name": "functional_1/lstm_1_2/while/NoOp", "op": "NoOp", "input": ["^functional_1/lstm_1_2/while/lstm_cell_1/Cast/ReadVariableOp", "^functional_1/lstm_1_2/while/lstm_cell_1/Cast_1/ReadVariableOp", "^functional_1/lstm_1_2/while/lstm_cell_1/add_1/ReadVariableOp"]}, {"name": "functional_1/lstm_1_2/while/lstm_cell_1/MatMul", "op": "MatMul", "input": ["functional_1/lstm_1_2/while/TensorArrayV2Read/TensorListGetItem:item:0", "functional_1/lstm_1_2/while/lstm_cell_1/Cast/ReadVariableOp:output:0"], "attr": {"grad_a": {"b": false}, "transpose_a": {"b": false}, "T": {"type": "DT_FLOAT"}, "grad_b": {"b": false}, "transpose_b": {"b": false}}}, {"name": "functional_1/lstm_1_2/while/Identity_1", "op": "Identity", "input": ["functional_1_lstm_1_2_while_functional_1_lstm_1_2_max", "^functional_1/lstm_1_2/while/NoOp"], "attr": {"T": {"type": "DT_INT32"}}}, {"name": "functional_1/lstm_1_2/while/Identity_2", "op": "Identity", "input": ["functional_1/lstm_1_2/while/add:z:0", "^functional_1/lstm_1_2/while/NoOp"], "attr": {"T": {"type": "DT_INT32"}}}, {"name": "functional_1/lstm_1_2/while/Identity", "op": "Identity", "input": ["functional_1/lstm_1_2/while/add_1:z:0", "^functional_1/lstm_1_2/while/NoOp"], "attr": {"T": {"type": "DT_INT32"}}}, {"name": "functional_1/lstm_1_2/while/lstm_cell_1/add", "op": "AddV2", "input": ["functional_1/lstm_1_2/while/lstm_cell_1/MatMul:product:0", "functional_1/lstm_1_2/while/lstm_cell_1/MatMul_1:product:0"], "attr": {"T": {"type": "DT_FLOAT"}}}, {"name": "functional_1/lstm_1_2/while/lstm_cell_1/add_1", "op": "AddV2", "input": ["functional_1/lstm_1_2/while/lstm_cell_1/add:z:0", "functional_1/lstm_1_2/while/lstm_cell_1/add_1/ReadVariableOp:output:0"], "attr": {"T": {"type": "DT_FLOAT"}}}, {"name": "functional_1/lstm_1_2/while/lstm_cell_1/split", "op": "Split", "input": ["__inference_functional_1_lstm_1_2_while_body_18101_frozen_1129/functional_1/lstm_1_2/while/lstm_cell_1/split/split_dim:output:0", "functional_1/lstm_1_2/while/lstm_cell_1/add_1:z:0"], "attr": {"num_split": {"i": "4"}, "T": {"type": "DT_FLOAT"}}}, {"name": "functional_1/lstm_1_2/while/lstm_cell_1/Sigmoid", "op": "Sigmoid", "input": ["functional_1/lstm_1_2/while/lstm_cell_1/split:output:0"], "attr": {"T": {"type": "DT_FLOAT"}}}, {"name": "functional_1/lstm_1_2/while/lstm_cell_1/Sigmoid_1", "op": "Sigmoid", "input": ["functional_1/lstm_1_2/while/lstm_cell_1/split:output:1"], "attr": {"T": {"type": "DT_FLOAT"}}}, {"name": "functional_1/lstm_1_2/while/lstm_cell_1/Tanh", "op": "Tanh", "input": ["functional_1/lstm_1_2/while/lstm_cell_1/split:output:2"], "attr": {"T": {"type": "DT_FLOAT"}}}, {"name": "functional_1/lstm_1_2/while/lstm_cell_1/Sigmoid_2", "op": "Sigmoid", "input": ["functional_1/lstm_1_2/while/lstm_cell_1/split:output:3"], "attr": {"T": {"type": "DT_FLOAT"}}}, {"name": "functional_1/lstm_1_2/while/lstm_cell_1/mul", "op": "Mul", "input": ["functional_1/lstm_1_2/while/lstm_cell_1/Sigmoid_1:y:0", "functional_1_lstm_1_2_while_placeholder_3"], "attr": {"T": {"type": "DT_FLOAT"}}}, {"name": "functional_1/lstm_1_2/while/lstm_cell_1/mul_1", "op": "Mul", "input": ["functional_1/lstm_1_2/while/lstm_cell_1/Sigmoid:y:0", "functional_1/lstm_1_2/while/lstm_cell_1/Tanh:y:0"], "attr": {"T": {"type": "DT_FLOAT"}}}, {"name": "functional_1/lstm_1_2/while/lstm_cell_1/add_2", "op": "AddV2", "input": ["functional_1/lstm_1_2/while/lstm_cell_1/mul:z:0", "functional_1/lstm_1_2/while/lstm_cell_1/mul_1:z:0"], "attr": {"T": {"type": "DT_FLOAT"}}}, {"name": "functional_1/lstm_1_2/while/lstm_cell_1/Tanh_1", "op": "Tanh", "input": ["functional_1/lstm_1_2/while/lstm_cell_1/add_2:z:0"], "attr": {"T": {"type": "DT_FLOAT"}}}, {"name": "functional_1/lstm_1_2/while/Identity_5", "op": "Identity", "input": ["functional_1/lstm_1_2/while/lstm_cell_1/add_2:z:0", "^functional_1/lstm_1_2/while/NoOp"], "attr": {"T": {"type": "DT_FLOAT"}}}, {"name": "functional_1/lstm_1_2/while/lstm_cell_1/mul_2", "op": "Mul", "input": ["functional_1/lstm_1_2/while/lstm_cell_1/Sigmoid_2:y:0", "functional_1/lstm_1_2/while/lstm_cell_1/Tanh_1:y:0"], "attr": {"T": {"type": "DT_FLOAT"}}}, {"name": "functional_1/lstm_1_2/while/TensorArrayV2Write/TensorListSetItem", "op": "TensorListSetItem", "input": ["functional_1_lstm_1_2_while_placeholder_1", "__inference_functional_1_lstm_1_2_while_body_18101_frozen_1129/functional_1/lstm_1_2/while/TensorArrayV2Write/TensorListSetItem/index:output:0", "functional_1/lstm_1_2/while/lstm_cell_1/mul_2:z:0"], "attr": {"element_dtype": {"type": "DT_FLOAT"}, "resize_if_index_out_of_bounds": {"b": false}}, "experimentalType": {"typeId": "TFT_PRODUCT", "args": [{"typeId": "TFT_ARRAY", "args": [{"typeId": "TFT_TENSOR", "args": [{"typeId": "TFT_FLOAT"}]}]}]}}, {"name": "functional_1/lstm_1_2/while/Identity_4", "op": "Identity", "input": ["functional_1/lstm_1_2/while/lstm_cell_1/mul_2:z:0", "^functional_1/lstm_1_2/while/NoOp"], "attr": {"T": {"type": "DT_FLOAT"}}}, {"name": "functional_1/lstm_1_2/while/Identity_3", "op": "Identity", "input": ["functional_1/lstm_1_2/while/TensorArrayV2Write/TensorListSetItem:output_handle:0", "^functional_1/lstm_1_2/while/NoOp"], "attr": {"T": {"type": "DT_VARIANT"}}}], "ret": {"functional_1_lstm_1_2_while_identity_3": "functional_1/lstm_1_2/while/Identity_3:output:0", "functional_1_lstm_1_2_while_identity_2": "functional_1/lstm_1_2/while/Identity_2:output:0", "functional_1_lstm_1_2_while_lstm_cell_1_cast_readvariableop_resource": "functional_1_lstm_1_2_while_lstm_cell_1_cast_readvariableop_resource_0", "functional_1_lstm_1_2_while_tensorarrayv2read_tensorlistgetitem_functional_1_lstm_1_2_tensorarrayunstack_tensorlistfromtensor": "functional_1_lstm_1_2_while_tensorarrayv2read_tensorlistgetitem_functional_1_lstm_1_2_tensorarrayunstack_tensorlistfromtensor_0", "functional_1_lstm_1_2_while_lstm_cell_1_add_1_readvariableop_resource": "functional_1_lstm_1_2_while_lstm_cell_1_add_1_readvariableop_resource_0", "functional_1_lstm_1_2_while_lstm_cell_1_cast_1_readvariableop_resource": "functional_1_lstm_1_2_while_lstm_cell_1_cast_1_readvariableop_resource_0", "functional_1_lstm_1_2_while_identity": "functional_1/lstm_1_2/while/Identity:output:0", "functional_1_lstm_1_2_while_identity_1": "functional_1/lstm_1_2/while/Identity_1:output:0", "functional_1_lstm_1_2_while_identity_4": "functional_1/lstm_1_2/while/Identity_4:output:0", "functional_1_lstm_1_2_while_identity_5": "functional_1/lstm_1_2/while/Identity_5:output:0"}, "attr": {"_construction_context": {"s": "a0VhZ2VyUnVudGltZQ=="}}, "controlRet": {"functional_1/lstm_1_2/while/lstm_cell_1/Cast/ReadVariableOp": "functional_1/lstm_1_2/while/lstm_cell_1/Cast/ReadVariableOp", "functional_1/lstm_1_2/while/lstm_cell_1/Cast_1/ReadVariableOp": "functional_1/lstm_1_2/while/lstm_cell_1/Cast_1/ReadVariableOp", "functional_1/lstm_1_2/while/lstm_cell_1/add_1/ReadVariableOp": "functional_1/lstm_1_2/while/lstm_cell_1/add_1/ReadVariableOp"}, "argAttr": {"9": {"attr": {"_user_specified_name": {"s": "cmVzb3VyY2U="}}}, "0": {"attr": {"_output_shapes": {"list": {"shape": [{}]}}, "_user_specified_name": {"s": "ZnVuY3Rpb25hbF8xL2xzdG1fMV8yL3doaWxlL2xvb3BfY291bnRlcg=="}}}, "1": {"attr": {"_output_shapes": {"list": {"shape": [{}]}}, "_user_specified_name": {"s": "ZnVuY3Rpb25hbF8xL2xzdG1fMV8yL01heA=="}}}, "7": {"attr": {"_user_specified_name": {"s": "cmVzb3VyY2U="}}}, "6": {"attr": {"_output_shapes": {"list": {"shape": [{}]}}, "_user_specified_name": {"s": "ZnVuY3Rpb25hbF8xL2xzdG1fMV8yL1RlbnNvckFycmF5VW5zdGFjay9UZW5zb3JMaXN0RnJvbVRlbnNvcg=="}}}, "4": {"attr": {"_output_shapes": {"list": {"shape": [{"dim": [{"size": "-1"}, {"size": "64"}]}]}}}}, "2": {"attr": {"_output_shapes": {"list": {"shape": [{}]}}}}, "8": {"attr": {"_user_specified_name": {"s": "cmVzb3VyY2U="}}}, "3": {"attr": {"_output_shapes": {"list": {"shape": [{}]}}}}, "5": {"attr": {"_output_shapes": {"list": {"shape": [{"dim": [{"size": "-1"}, {"size": "64"}]}]}}}}}}, {"signature": {"name": "__inference_functional_1_lstm_2_1_while_cond_18285_frozen_1126", "inputArg": [{"name": "functional_1_lstm_2_1_while_functional_1_lstm_2_1_while_loop_counter", "type": "DT_INT32"}, {"name": "functional_1_lstm_2_1_while_functional_1_lstm_2_1_max", "type": "DT_INT32"}, {"name": "functional_1_lstm_2_1_while_placeholder", "type": "DT_INT32"}, {"name": "functional_1_lstm_2_1_while_placeholder_1", "type": "DT_VARIANT"}, {"name": "functional_1_lstm_2_1_while_placeholder_2", "type": "DT_FLOAT"}, {"name": "functional_1_lstm_2_1_while_placeholder_3", "type": "DT_FLOAT"}, {"name": "functional_1_lstm_2_1_while_functional_1_lstm_2_1_while_cond_18285___redundant_placeholder0", "type": "DT_VARIANT"}, {"name": "functional_1_lstm_2_1_while_functional_1_lstm_2_1_while_cond_18285___redundant_placeholder1", "type": "DT_FLOAT"}, {"name": "functional_1_lstm_2_1_while_functional_1_lstm_2_1_while_cond_18285___redundant_placeholder2", "type": "DT_FLOAT"}, {"name": "functional_1_lstm_2_1_while_functional_1_lstm_2_1_while_cond_18285___redundant_placeholder3", "type": "DT_FLOAT"}], "outputArg": [{"name": "functional_1_lstm_2_1_while_identity", "type": "DT_BOOL"}]}, "nodeDef": [{"name": "__inference_functional_1_lstm_2_1_while_cond_18285_frozen_1126/functional_1/lstm_2_1/while/Less/y", "op": "Const", "attr": {"value": {"tensor": {"dtype": "DT_INT32", "tensorShape": {}}}, "dtype": {"type": "DT_INT32"}}}, {"name": "functional_1/lstm_2_1/while/Less_1", "op": "Less", "input": ["functional_1_lstm_2_1_while_functional_1_lstm_2_1_while_loop_counter", "functional_1_lstm_2_1_while_functional_1_lstm_2_1_max"], "attr": {"T": {"type": "DT_INT32"}}}, {"name": "functional_1/lstm_2_1/while/Less", "op": "Less", "input": ["functional_1_lstm_2_1_while_placeholder", "__inference_functional_1_lstm_2_1_while_cond_18285_frozen_1126/functional_1/lstm_2_1/while/Less/y:output:0"], "attr": {"T": {"type": "DT_INT32"}}}, {"name": "functional_1/lstm_2_1/while/LogicalAnd", "op": "LogicalAnd", "input": ["functional_1/lstm_2_1/while/Less_1:z:0", "functional_1/lstm_2_1/while/Less:z:0"]}], "ret": {"functional_1_lstm_2_1_while_identity": "functional_1/lstm_2_1/while/LogicalAnd:z:0"}, "attr": {"_construction_context": {"s": "a0VhZ2VyUnVudGltZQ=="}}, "argAttr": {"6": {"attr": {"_output_shapes": {"list": {"shape": [{"unknownRank": true}]}}}}, "1": {"attr": {"_output_shapes": {"list": {"shape": [{}]}}, "_user_specified_name": {"s": "ZnVuY3Rpb25hbF8xL2xzdG1fMl8xL01heA=="}}}, "0": {"attr": {"_output_shapes": {"list": {"shape": [{}]}}, "_user_specified_name": {"s": "ZnVuY3Rpb25hbF8xL2xzdG1fMl8xL3doaWxlL2xvb3BfY291bnRlcg=="}}}, "4": {"attr": {"_output_shapes": {"list": {"shape": [{"dim": [{"size": "-1"}, {"size": "128"}]}]}}}}, "2": {"attr": {"_output_shapes": {"list": {"shape": [{}]}}}}, "3": {"attr": {"_output_shapes": {"list": {"shape": [{}]}}}}, "5": {"attr": {"_output_shapes": {"list": {"shape": [{"dim": [{"size": "-1"}, {"size": "128"}]}]}}}}}}]}, "versions": {"producer": 2129, "minConsumer": 12}}, "weightsManifest": [{"paths": ["group1-shard1of2.bin", "group1-shard2of2.bin"], "weights": [{"name": "StatefulPartitionedCall/functional_1/time_distributed_1/strided_slice_1/stack", "shape": [1], "dtype": "int32"}, {"name": "StatefulPartitionedCall/functional_1/time_distributed_1/strided_slice_1/stack_1", "shape": [1], "dtype": "int32"}, {"name": "StatefulPartitionedCall/functional_1/time_distributed_1/strided_slice_1/stack_2", "shape": [1], "dtype": "int32"}, {"name": "StatefulPartitionedCall/functional_1/time_distributed_1/Cast/ReadVariableOp", "shape": [128, 199], "dtype": "float32"}, {"name": "StatefulPartitionedCall/functional_1/time_distributed_1/BiasAdd/ReadVariableOp", "shape": [199], "dtype": "float32"}, {"name": "StatefulPartitionedCall/functional_1/time_distributed_1/strided_slice_2/stack", "shape": [1], "dtype": "int32"}, {"name": "StatefulPartitionedCall/functional_1/time_distributed_1/strided_slice_2/stack_1", "shape": [1], "dtype": "int32"}, {"name": "StatefulPartitionedCall/functional_1/time_distributed_1/strided_slice_2/stack_2", "shape": [1], "dtype": "int32"}, {"name": "StatefulPartitionedCall/functional_1/time_distributed_1/Cast_1/ReadVariableOp", "shape": [128, 199], "dtype": "float32"}, {"name": "StatefulPartitionedCall/functional_1/time_distributed_1/BiasAdd_1/ReadVariableOp", "shape": [199], "dtype": "float32"}, {"name": "StatefulPartitionedCall/functional_1/time_distributed_1/strided_slice_3/stack", "shape": [1], "dtype": "int32"}, {"name": "StatefulPartitionedCall/functional_1/time_distributed_1/strided_slice_3/stack_1", "shape": [1], "dtype": "int32"}, {"name": "StatefulPartitionedCall/functional_1/time_distributed_1/strided_slice_3/stack_2", "shape": [1], "dtype": "int32"}, {"name": "StatefulPartitionedCall/functional_1/time_distributed_1/Cast_2/ReadVariableOp", "shape": [128, 199], "dtype": "float32"}, {"name": "StatefulPartitionedCall/functional_1/time_distributed_1/BiasAdd_2/ReadVariableOp", "shape": [199], "dtype": "float32"}, {"name": "StatefulPartitionedCall/functional_1/time_distributed_1/strided_slice_4/stack", "shape": [1], "dtype": "int32"}, {"name": "StatefulPartitionedCall/functional_1/time_distributed_1/strided_slice_4/stack_1", "shape": [1], "dtype": "int32"}, {"name": "StatefulPartitionedCall/functional_1/time_distributed_1/strided_slice_4/stack_2", "shape": [1], "dtype": "int32"}, {"name": "StatefulPartitionedCall/functional_1/time_distributed_1/Cast_3/ReadVariableOp", "shape": [128, 199], "dtype": "float32"}, {"name": "StatefulPartitionedCall/functional_1/time_distributed_1/BiasAdd_3/ReadVariableOp", "shape": [199], "dtype": "float32"}, {"name": "StatefulPartitionedCall/functional_1/time_distributed_1/strided_slice_5/stack", "shape": [1], "dtype": "int32"}, {"name": "StatefulPartitionedCall/functional_1/time_distributed_1/strided_slice_5/stack_1", "shape": [1], "dtype": "int32"}, {"name": "StatefulPartitionedCall/functional_1/time_distributed_1/strided_slice_5/stack_2", "shape": [1], "dtype": "int32"}, {"name": "StatefulPartitionedCall/functional_1/time_distributed_1/Cast_4/ReadVariableOp", "shape": [128, 199], "dtype": "float32"}, {"name": "StatefulPartitionedCall/functional_1/time_distributed_1/BiasAdd_4/ReadVariableOp", "shape": [199], "dtype": "float32"}, {"name": "StatefulPartitionedCall/functional_1/time_distributed_1/strided_slice_6/stack", "shape": [1], "dtype": "int32"}, {"name": "StatefulPartitionedCall/functional_1/time_distributed_1/strided_slice_6/stack_1", "shape": [1], "dtype": "int32"}, {"name": "StatefulPartitionedCall/functional_1/time_distributed_1/strided_slice_6/stack_2", "shape": [1], "dtype": "int32"}, {"name": "StatefulPartitionedCall/functional_1/time_distributed_1/Cast_5/ReadVariableOp", "shape": [128, 199], "dtype": "float32"}, {"name": "StatefulPartitionedCall/functional_1/time_distributed_1/BiasAdd_5/ReadVariableOp", "shape": [199], "dtype": "float32"}, {"name": "StatefulPartitionedCall/functional_1/time_distributed_1/strided_slice_7/stack", "shape": [1], "dtype": "int32"}, {"name": "StatefulPartitionedCall/functional_1/time_distributed_1/strided_slice_7/stack_1", "shape": [1], "dtype": "int32"}, {"name": "StatefulPartitionedCall/functional_1/time_distributed_1/strided_slice_7/stack_2", "shape": [1], "dtype": "int32"}, {"name": "StatefulPartitionedCall/functional_1/time_distributed_1/Cast_6/ReadVariableOp", "shape": [128, 199], "dtype": "float32"}, {"name": "StatefulPartitionedCall/functional_1/time_distributed_1/BiasAdd_6/ReadVariableOp", "shape": [199], "dtype": "float32"}, {"name": "StatefulPartitionedCall/functional_1/time_distributed_1/strided_slice_8/stack", "shape": [1], "dtype": "int32"}, {"name": "StatefulPartitionedCall/functional_1/time_distributed_1/strided_slice_8/stack_1", "shape": [1], "dtype": "int32"}, {"name": "StatefulPartitionedCall/functional_1/time_distributed_1/strided_slice_8/stack_2", "shape": [1], "dtype": "int32"}, {"name": "StatefulPartitionedCall/functional_1/time_distributed_1/Cast_7/ReadVariableOp", "shape": [128, 199], "dtype": "float32"}, {"name": "StatefulPartitionedCall/functional_1/time_distributed_1/BiasAdd_7/ReadVariableOp", "shape": [199], "dtype": "float32"}, {"name": "StatefulPartitionedCall/functional_1/time_distributed_1/strided_slice_9/stack", "shape": [1], "dtype": "int32"}, {"name": "StatefulPartitionedCall/functional_1/time_distributed_1/strided_slice_9/stack_1", "shape": [1], "dtype": "int32"}, {"name": "StatefulPartitionedCall/functional_1/time_distributed_1/strided_slice_9/stack_2", "shape": [1], "dtype": "int32"}, {"name": "StatefulPartitionedCall/functional_1/time_distributed_1/Cast_8/ReadVariableOp", "shape": [128, 199], "dtype": "float32"}, {"name": "StatefulPartitionedCall/functional_1/time_distributed_1/BiasAdd_8/ReadVariableOp", "shape": [199], "dtype": "float32"}, {"name": "StatefulPartitionedCall/functional_1/time_distributed_1/strided_slice_10/stack", "shape": [1], "dtype": "int32"}, {"name": "StatefulPartitionedCall/functional_1/time_distributed_1/strided_slice_10/stack_1", "shape": [1], "dtype": "int32"}, {"name": "StatefulPartitionedCall/functional_1/time_distributed_1/strided_slice_10/stack_2", "shape": [1], "dtype": "int32"}, {"name": "StatefulPartitionedCall/functional_1/time_distributed_1/Cast_9/ReadVariableOp", "shape": [128, 199], "dtype": "float32"}, {"name": "StatefulPartitionedCall/functional_1/time_distributed_1/BiasAdd_9/ReadVariableOp", "shape": [199], "dtype": "float32"}, {"name": "StatefulPartitionedCall/functional_1/time_distributed_1/strided_slice_11/stack", "shape": [1], "dtype": "int32"}, {"name": "StatefulPartitionedCall/functional_1/time_distributed_1/strided_slice_11/stack_1", "shape": [1], "dtype": "int32"}, {"name": "StatefulPartitionedCall/functional_1/time_distributed_1/strided_slice_11/stack_2", "shape": [1], "dtype": "int32"}, {"name": "StatefulPartitionedCall/functional_1/time_distributed_1/Cast_10/ReadVariableOp", "shape": [128, 199], "dtype": "float32"}, {"name": "StatefulPartitionedCall/functional_1/time_distributed_1/BiasAdd_10/ReadVariableOp", "shape": [199], "dtype": "float32"}, {"name": "StatefulPartitionedCall/functional_1/time_distributed_1/strided_slice_12/stack", "shape": [1], "dtype": "int32"}, {"name": "StatefulPartitionedCall/functional_1/time_distributed_1/strided_slice_12/stack_1", "shape": [1], "dtype": "int32"}, {"name": "StatefulPartitionedCall/functional_1/time_distributed_1/strided_slice_12/stack_2", "shape": [1], "dtype": "int32"}, {"name": "StatefulPartitionedCall/functional_1/time_distributed_1/Cast_11/ReadVariableOp", "shape": [128, 199], "dtype": "float32"}, {"name": "StatefulPartitionedCall/functional_1/time_distributed_1/BiasAdd_11/ReadVariableOp", "shape": [199], "dtype": "float32"}, {"name": "StatefulPartitionedCall/functional_1/time_distributed_1/strided_slice_13/stack", "shape": [1], "dtype": "int32"}, {"name": "StatefulPartitionedCall/functional_1/time_distributed_1/strided_slice_13/stack_1", "shape": [1], "dtype": "int32"}, {"name": "StatefulPartitionedCall/functional_1/time_distributed_1/strided_slice_13/stack_2", "shape": [1], "dtype": "int32"}, {"name": "StatefulPartitionedCall/functional_1/time_distributed_1/Cast_12/ReadVariableOp", "shape": [128, 199], "dtype": "float32"}, {"name": "StatefulPartitionedCall/functional_1/time_distributed_1/BiasAdd_12/ReadVariableOp", "shape": [199], "dtype": "float32"}, {"name": "StatefulPartitionedCall/functional_1/time_distributed_1/strided_slice_14/stack", "shape": [1], "dtype": "int32"}, {"name": "StatefulPartitionedCall/functional_1/time_distributed_1/strided_slice_14/stack_1", "shape": [1], "dtype": "int32"}, {"name": "StatefulPartitionedCall/functional_1/time_distributed_1/strided_slice_14/stack_2", "shape": [1], "dtype": "int32"}, {"name": "StatefulPartitionedCall/functional_1/time_distributed_1/Cast_13/ReadVariableOp", "shape": [128, 199], "dtype": "float32"}, {"name": "StatefulPartitionedCall/functional_1/time_distributed_1/BiasAdd_13/ReadVariableOp", "shape": [199], "dtype": "float32"}, {"name": "StatefulPartitionedCall/functional_1/time_distributed_1/strided_slice_15/stack", "shape": [1], "dtype": "int32"}, {"name": "StatefulPartitionedCall/functional_1/time_distributed_1/strided_slice_15/stack_1", "shape": [1], "dtype": "int32"}, {"name": "StatefulPartitionedCall/functional_1/time_distributed_1/strided_slice_15/stack_2", "shape": [1], "dtype": "int32"}, {"name": "StatefulPartitionedCall/functional_1/time_distributed_1/Cast_14/ReadVariableOp", "shape": [128, 199], "dtype": "float32"}, {"name": "StatefulPartitionedCall/functional_1/time_distributed_1/BiasAdd_14/ReadVariableOp", "shape": [199], "dtype": "float32"}, {"name": "StatefulPartitionedCall/functional_1/time_distributed_1/strided_slice_16/stack", "shape": [1], "dtype": "int32"}, {"name": "StatefulPartitionedCall/functional_1/time_distributed_1/strided_slice_16/stack_1", "shape": [1], "dtype": "int32"}, {"name": "StatefulPartitionedCall/functional_1/time_distributed_1/strided_slice_16/stack_2", "shape": [1], "dtype": "int32"}, {"name": "StatefulPartitionedCall/functional_1/time_distributed_1/Cast_15/ReadVariableOp", "shape": [128, 199], "dtype": "float32"}, {"name": "StatefulPartitionedCall/functional_1/time_distributed_1/BiasAdd_15/ReadVariableOp", "shape": [199], "dtype": "float32"}, {"name": "StatefulPartitionedCall/functional_1/time_distributed_1/strided_slice_17/stack", "shape": [1], "dtype": "int32"}, {"name": "StatefulPartitionedCall/functional_1/time_distributed_1/strided_slice_17/stack_1", "shape": [1], "dtype": "int32"}, {"name": "StatefulPartitionedCall/functional_1/time_distributed_1/strided_slice_17/stack_2", "shape": [1], "dtype": "int32"}, {"name": "StatefulPartitionedCall/functional_1/time_distributed_1/Cast_16/ReadVariableOp", "shape": [128, 199], "dtype": "float32"}, {"name": "StatefulPartitionedCall/functional_1/time_distributed_1/BiasAdd_16/ReadVariableOp", "shape": [199], "dtype": "float32"}, {"name": "StatefulPartitionedCall/functional_1/time_distributed_1/strided_slice_18/stack", "shape": [1], "dtype": "int32"}, {"name": "StatefulPartitionedCall/functional_1/time_distributed_1/strided_slice_18/stack_1", "shape": [1], "dtype": "int32"}, {"name": "StatefulPartitionedCall/functional_1/time_distributed_1/strided_slice_18/stack_2", "shape": [1], "dtype": "int32"}, {"name": "StatefulPartitionedCall/functional_1/time_distributed_1/Cast_17/ReadVariableOp", "shape": [128, 199], "dtype": "float32"}, {"name": "StatefulPartitionedCall/functional_1/time_distributed_1/BiasAdd_17/ReadVariableOp", "shape": [199], "dtype": "float32"}, {"name": "StatefulPartitionedCall/functional_1/time_distributed_1/strided_slice_19/stack", "shape": [1], "dtype": "int32"}, {"name": "StatefulPartitionedCall/functional_1/time_distributed_1/strided_slice_19/stack_1", "shape": [1], "dtype": "int32"}, {"name": "StatefulPartitionedCall/functional_1/time_distributed_1/strided_slice_19/stack_2", "shape": [1], "dtype": "int32"}, {"name": "StatefulPartitionedCall/functional_1/time_distributed_1/Cast_18/ReadVariableOp", "shape": [128, 199], "dtype": "float32"}, {"name": "StatefulPartitionedCall/functional_1/time_distributed_1/BiasAdd_18/ReadVariableOp", "shape": [199], "dtype": "float32"}, {"name": "StatefulPartitionedCall/functional_1/time_distributed_1/strided_slice_20/stack", "shape": [1], "dtype": "int32"}, {"name": "StatefulPartitionedCall/functional_1/time_distributed_1/strided_slice_20/stack_1", "shape": [1], "dtype": "int32"}, {"name": "StatefulPartitionedCall/functional_1/time_distributed_1/strided_slice_20/stack_2", "shape": [1], "dtype": "int32"}, {"name": "StatefulPartitionedCall/functional_1/time_distributed_1/Cast_19/ReadVariableOp", "shape": [128, 199], "dtype": "float32"}, {"name": "StatefulPartitionedCall/functional_1/time_distributed_1/BiasAdd_19/ReadVariableOp", "shape": [199], "dtype": "float32"}, {"name": "StatefulPartitionedCall/functional_1/time_distributed_1/strided_slice_21/stack", "shape": [1], "dtype": "int32"}, {"name": "StatefulPartitionedCall/functional_1/time_distributed_1/strided_slice_21/stack_1", "shape": [1], "dtype": "int32"}, {"name": "StatefulPartitionedCall/functional_1/time_distributed_1/strided_slice_21/stack_2", "shape": [1], "dtype": "int32"}, {"name": "StatefulPartitionedCall/functional_1/time_distributed_1/Cast_20/ReadVariableOp", "shape": [128, 199], "dtype": "float32"}, {"name": "StatefulPartitionedCall/functional_1/time_distributed_1/BiasAdd_20/ReadVariableOp", "shape": [199], "dtype": "float32"}, {"name": "StatefulPartitionedCall/functional_1/time_distributed_1/strided_slice_22/stack", "shape": [1], "dtype": "int32"}, {"name": "StatefulPartitionedCall/functional_1/time_distributed_1/strided_slice_22/stack_1", "shape": [1], "dtype": "int32"}, {"name": "StatefulPartitionedCall/functional_1/time_distributed_1/strided_slice_22/stack_2", "shape": [1], "dtype": "int32"}, {"name": "StatefulPartitionedCall/functional_1/time_distributed_1/Cast_21/ReadVariableOp", "shape": [128, 199], "dtype": "float32"}, {"name": "StatefulPartitionedCall/functional_1/time_distributed_1/BiasAdd_21/ReadVariableOp", "shape": [199], "dtype": "float32"}, {"name": "StatefulPartitionedCall/functional_1/time_distributed_1/strided_slice_23/stack", "shape": [1], "dtype": "int32"}, {"name": "StatefulPartitionedCall/functional_1/time_distributed_1/strided_slice_23/stack_1", "shape": [1], "dtype": "int32"}, {"name": "StatefulPartitionedCall/functional_1/time_distributed_1/strided_slice_23/stack_2", "shape": [1], "dtype": "int32"}, {"name": "StatefulPartitionedCall/functional_1/time_distributed_1/Cast_22/ReadVariableOp", "shape": [128, 199], "dtype": "float32"}, {"name": "StatefulPartitionedCall/functional_1/time_distributed_1/BiasAdd_22/ReadVariableOp", "shape": [199], "dtype": "float32"}, {"name": "StatefulPartitionedCall/functional_1/time_distributed_1/strided_slice_24/stack", "shape": [1], "dtype": "int32"}, {"name": "StatefulPartitionedCall/functional_1/time_distributed_1/strided_slice_24/stack_1", "shape": [1], "dtype": "int32"}, {"name": "StatefulPartitionedCall/functional_1/time_distributed_1/strided_slice_24/stack_2", "shape": [1], "dtype": "int32"}, {"name": "StatefulPartitionedCall/functional_1/time_distributed_1/Cast_23/ReadVariableOp", "shape": [128, 199], "dtype": "float32"}, {"name": "StatefulPartitionedCall/functional_1/time_distributed_1/BiasAdd_23/ReadVariableOp", "shape": [199], "dtype": "float32"}, {"name": "StatefulPartitionedCall/functional_1/time_distributed_1/strided_slice_25/stack", "shape": [1], "dtype": "int32"}, {"name": "StatefulPartitionedCall/functional_1/time_distributed_1/strided_slice_25/stack_1", "shape": [1], "dtype": "int32"}, {"name": "StatefulPartitionedCall/functional_1/time_distributed_1/strided_slice_25/stack_2", "shape": [1], "dtype": "int32"}, {"name": "StatefulPartitionedCall/functional_1/time_distributed_1/Cast_24/ReadVariableOp", "shape": [128, 199], "dtype": "float32"}, {"name": "StatefulPartitionedCall/functional_1/time_distributed_1/BiasAdd_24/ReadVariableOp", "shape": [199], "dtype": "float32"}, {"name": "StatefulPartitionedCall/functional_1/time_distributed_1/strided_slice_26/stack", "shape": [1], "dtype": "int32"}, {"name": "StatefulPartitionedCall/functional_1/time_distributed_1/strided_slice_26/stack_1", "shape": [1], "dtype": "int32"}, {"name": "StatefulPartitionedCall/functional_1/time_distributed_1/strided_slice_26/stack_2", "shape": [1], "dtype": "int32"}, {"name": "StatefulPartitionedCall/functional_1/time_distributed_1/Cast_25/ReadVariableOp", "shape": [128, 199], "dtype": "float32"}, {"name": "StatefulPartitionedCall/functional_1/time_distributed_1/BiasAdd_25/ReadVariableOp", "shape": [199], "dtype": "float32"}, {"name": "StatefulPartitionedCall/functional_1/time_distributed_1/strided_slice_27/stack", "shape": [1], "dtype": "int32"}, {"name": "StatefulPartitionedCall/functional_1/time_distributed_1/strided_slice_27/stack_1", "shape": [1], "dtype": "int32"}, {"name": "StatefulPartitionedCall/functional_1/time_distributed_1/strided_slice_27/stack_2", "shape": [1], "dtype": "int32"}, {"name": "StatefulPartitionedCall/functional_1/time_distributed_1/Cast_26/ReadVariableOp", "shape": [128, 199], "dtype": "float32"}, {"name": "StatefulPartitionedCall/functional_1/time_distributed_1/BiasAdd_26/ReadVariableOp", "shape": [199], "dtype": "float32"}, {"name": "StatefulPartitionedCall/functional_1/time_distributed_1/strided_slice_28/stack", "shape": [1], "dtype": "int32"}, {"name": "StatefulPartitionedCall/functional_1/time_distributed_1/strided_slice_28/stack_1", "shape": [1], "dtype": "int32"}, {"name": "StatefulPartitionedCall/functional_1/time_distributed_1/strided_slice_28/stack_2", "shape": [1], "dtype": "int32"}, {"name": "StatefulPartitionedCall/functional_1/time_distributed_1/Cast_27/ReadVariableOp", "shape": [128, 199], "dtype": "float32"}, {"name": "StatefulPartitionedCall/functional_1/time_distributed_1/BiasAdd_27/ReadVariableOp", "shape": [199], "dtype": "float32"}, {"name": "StatefulPartitionedCall/functional_1/time_distributed_1/strided_slice_29/stack", "shape": [1], "dtype": "int32"}, {"name": "StatefulPartitionedCall/functional_1/time_distributed_1/strided_slice_29/stack_1", "shape": [1], "dtype": "int32"}, {"name": "StatefulPartitionedCall/functional_1/time_distributed_1/strided_slice_29/stack_2", "shape": [1], "dtype": "int32"}, {"name": "StatefulPartitionedCall/functional_1/time_distributed_1/Cast_28/ReadVariableOp", "shape": [128, 199], "dtype": "float32"}, {"name": "StatefulPartitionedCall/functional_1/time_distributed_1/BiasAdd_28/ReadVariableOp", "shape": [199], "dtype": "float32"}, {"name": "StatefulPartitionedCall/functional_1/lstm_2_1/while/loop_counter", "shape": [], "dtype": "int32"}, {"name": "StatefulPartitionedCall/functional_1/lstm_2_1/Max", "shape": [], "dtype": "int32"}, {"name": "StatefulPartitionedCall/functional_1/lstm_2_1/time", "shape": [], "dtype": "int32"}, {"name": "StatefulPartitionedCall/functional_1/lstm_2_1/TensorArrayV2_1/element_shape", "shape": [2], "dtype": "int32"}, {"name": "StatefulPartitionedCall/functional_1/lstm_2_1/TensorArrayV2_1/num_elements", "shape": [], "dtype": "int32"}, {"name": "StatefulPartitionedCall/functional_1/lstm_2_1/zeros/packed/1", "shape": [], "dtype": "int32"}, {"name": "StatefulPartitionedCall/functional_1/lstm_2_1/zeros/Const", "shape": [], "dtype": "float32"}, {"name": "StatefulPartitionedCall/functional_1/lstm_2_1/strided_slice/stack", "shape": [1], "dtype": "int32"}, {"name": "StatefulPartitionedCall/functional_1/lstm_2_1/strided_slice/stack_1", "shape": [1], "dtype": "int32"}, {"name": "StatefulPartitionedCall/functional_1/lstm_2_1/strided_slice/stack_2", "shape": [1], "dtype": "int32"}, {"name": "StatefulPartitionedCall/functional_1/lstm_2_1/zeros_1/packed/1", "shape": [], "dtype": "int32"}, {"name": "StatefulPartitionedCall/functional_1/lstm_2_1/zeros_1/Const", "shape": [], "dtype": "float32"}, {"name": "StatefulPartitionedCall/functional_1/repeat_vector_1/Repeat/ExpandDims/dim", "shape": [], "dtype": "int32"}, {"name": "StatefulPartitionedCall/functional_1/repeat_vector_1/Repeat/Tile/multiples", "shape": [4], "dtype": "int32"}, {"name": "StatefulPartitionedCall/functional_1/repeat_vector_1/Repeat/strided_slice/stack", "shape": [1], "dtype": "int32"}, {"name": "StatefulPartitionedCall/functional_1/repeat_vector_1/Repeat/strided_slice/stack_1", "shape": [1], "dtype": "int32"}, {"name": "StatefulPartitionedCall/functional_1/repeat_vector_1/Repeat/strided_slice/stack_2", "shape": [1], "dtype": "int32"}, {"name": "StatefulPartitionedCall/functional_1/repeat_vector_1/Repeat/Reshape", "shape": [], "dtype": "int32"}, {"name": "StatefulPartitionedCall/functional_1/repeat_vector_1/Repeat/strided_slice_1/stack", "shape": [1], "dtype": "int32"}, {"name": "StatefulPartitionedCall/functional_1/repeat_vector_1/Repeat/strided_slice_1/stack_1", "shape": [1], "dtype": "int32"}, {"name": "StatefulPartitionedCall/functional_1/repeat_vector_1/Repeat/strided_slice_1/stack_2", "shape": [1], "dtype": "int32"}, {"name": "StatefulPartitionedCall/functional_1/lstm_1_2/while/loop_counter", "shape": [], "dtype": "int32"}, {"name": "StatefulPartitionedCall/functional_1/lstm_1_2/Max", "shape": [], "dtype": "int32"}, {"name": "StatefulPartitionedCall/functional_1/lstm_1_2/time", "shape": [], "dtype": "int32"}, {"name": "StatefulPartitionedCall/functional_1/lstm_1_2/TensorArrayV2_1/element_shape", "shape": [2], "dtype": "int32"}, {"name": "StatefulPartitionedCall/functional_1/lstm_1_2/TensorArrayV2_1/num_elements", "shape": [], "dtype": "int32"}, {"name": "StatefulPartitionedCall/functional_1/lstm_1_2/zeros/packed/1", "shape": [], "dtype": "int32"}, {"name": "StatefulPartitionedCall/functional_1/lstm_1_2/zeros/Const", "shape": [], "dtype": "float32"}, {"name": "StatefulPartitionedCall/functional_1/lstm_1/transpose_1/perm", "shape": [3], "dtype": "int32"}, {"name": "StatefulPartitionedCall/functional_1/lstm_1_2/strided_slice/stack", "shape": [1], "dtype": "int32"}, {"name": "StatefulPartitionedCall/functional_1/lstm_1_2/strided_slice/stack_1", "shape": [1], "dtype": "int32"}, {"name": "StatefulPartitionedCall/functional_1/lstm_1_2/strided_slice/stack_2", "shape": [1], "dtype": "int32"}, {"name": "StatefulPartitionedCall/functional_1/lstm_1_2/zeros_1/packed/1", "shape": [], "dtype": "int32"}, {"name": "StatefulPartitionedCall/functional_1/lstm_1_2/zeros_1/Const", "shape": [], "dtype": "float32"}, {"name": "StatefulPartitionedCall/functional_1/lstm_1/while/loop_counter", "shape": [], "dtype": "int32"}, {"name": "StatefulPartitionedCall/functional_1/lstm_1/Max", "shape": [], "dtype": "int32"}, {"name": "StatefulPartitionedCall/functional_1/lstm_1/time", "shape": [], "dtype": "int32"}, {"name": "StatefulPartitionedCall/functional_1/lstm_1/TensorArrayV2_1/element_shape", "shape": [2], "dtype": "int32"}, {"name": "StatefulPartitionedCall/functional_1/lstm_1/TensorArrayV2_1/num_elements", "shape": [], "dtype": "int32"}, {"name": "StatefulPartitionedCall/functional_1/lstm_1/zeros/packed/1", "shape": [], "dtype": "int32"}, {"name": "StatefulPartitionedCall/functional_1/lstm_1/zeros/Const", "shape": [], "dtype": "float32"}, {"name": "StatefulPartitionedCall/functional_1/lstm_1/strided_slice/stack", "shape": [1], "dtype": "int32"}, {"name": "StatefulPartitionedCall/functional_1/lstm_1/strided_slice/stack_1", "shape": [1], "dtype": "int32"}, {"name": "StatefulPartitionedCall/functional_1/lstm_1/strided_slice/stack_2", "shape": [1], "dtype": "int32"}, {"name": "StatefulPartitionedCall/functional_1/lstm_1/zeros_1/packed/1", "shape": [], "dtype": "int32"}, {"name": "StatefulPartitionedCall/functional_1/lstm_1/zeros_1/Const", "shape": [], "dtype": "float32"}, {"name": "StatefulPartitionedCall/functional_1/lstm_1/transpose/perm", "shape": [3], "dtype": "int32"}, {"name": "StatefulPartitionedCall/functional_1/lstm_1/TensorArrayUnstack/TensorListFromTensor/element_shape", "shape": [2], "dtype": "int32"}, {"name": "unknown", "shape": [199, 512], "dtype": "float32"}, {"name": "unknown_0", "shape": [128, 512], "dtype": "float32"}, {"name": "unknown_1", "shape": [512], "dtype": "float32"}, {"name": "StatefulPartitionedCall/functional_1/lstm_1/TensorArrayV2Stack/TensorListStack/element_shape", "shape": [2], "dtype": "int32"}, {"name": "StatefulPartitionedCall/functional_1/lstm_1_2/TensorArrayUnstack/TensorListFromTensor/element_shape", "shape": [2], "dtype": "int32"}, {"name": "unknown_2", "shape": [128, 256], "dtype": "float32"}, {"name": "unknown_3", "shape": [64, 256], "dtype": "float32"}, {"name": "unknown_4", "shape": [256], "dtype": "float32"}, {"name": "StatefulPartitionedCall/functional_1/lstm_1_2/TensorArrayV2Stack/TensorListStack/element_shape", "shape": [2], "dtype": "int32"}, {"name": "StatefulPartitionedCall/functional_1/lstm_1_2/strided_slice_3/stack", "shape": [1], "dtype": "int32"}, {"name": "StatefulPartitionedCall/functional_1/lstm_1_2/strided_slice_3/stack_1", "shape": [1], "dtype": "int32"}, {"name": "StatefulPartitionedCall/functional_1/lstm_1_2/strided_slice_3/stack_2", "shape": [1], "dtype": "int32"}, {"name": "StatefulPartitionedCall/functional_1/repeat_vector_1/strided_slice/stack", "shape": [1], "dtype": "int32"}, {"name": "StatefulPartitionedCall/functional_1/repeat_vector_1/strided_slice/stack_1", "shape": [1], "dtype": "int32"}, {"name": "StatefulPartitionedCall/functional_1/repeat_vector_1/strided_slice/stack_2", "shape": [1], "dtype": "int32"}, {"name": "StatefulPartitionedCall/functional_1/repeat_vector_1/Reshape/shape/1", "shape": [], "dtype": "int32"}, {"name": "StatefulPartitionedCall/functional_1/repeat_vector_1/Reshape/shape/2", "shape": [], "dtype": "int32"}, {"name": "StatefulPartitionedCall/functional_1/repeat_vector_1/Repeat/strided_slice_2/stack", "shape": [1], "dtype": "int32"}, {"name": "StatefulPartitionedCall/functional_1/repeat_vector_1/Repeat/strided_slice_2/stack_1", "shape": [1], "dtype": "int32"}, {"name": "StatefulPartitionedCall/functional_1/repeat_vector_1/Repeat/strided_slice_2/stack_2", "shape": [1], "dtype": "int32"}, {"name": "StatefulPartitionedCall/functional_1/repeat_vector_1/Repeat/concat/axis", "shape": [], "dtype": "int32"}, {"name": "StatefulPartitionedCall/functional_1/lstm_2_1/transpose/perm", "shape": [3], "dtype": "int32"}, {"name": "StatefulPartitionedCall/functional_1/lstm_2_1/TensorArrayUnstack/TensorListFromTensor/element_shape", "shape": [2], "dtype": "int32"}, {"name": "unknown_5", "shape": [64, 512], "dtype": "float32"}, {"name": "unknown_6", "shape": [128, 512], "dtype": "float32"}, {"name": "unknown_7", "shape": [512], "dtype": "float32"}, {"name": "StatefulPartitionedCall/functional_1/lstm_2_1/TensorArrayV2Stack/TensorListStack/element_shape", "shape": [2], "dtype": "int32"}, {"name": "StatefulPartitionedCall/functional_1/time_distributed_1/strided_slice_30/stack", "shape": [1], "dtype": "int32"}, {"name": "StatefulPartitionedCall/functional_1/time_distributed_1/strided_slice_30/stack_1", "shape": [1], "dtype": "int32"}, {"name": "StatefulPartitionedCall/functional_1/time_distributed_1/strided_slice_30/stack_2", "shape": [1], "dtype": "int32"}, {"name": "StatefulPartitionedCall/functional_1/time_distributed_1/Cast_29/ReadVariableOp", "shape": [128, 199], "dtype": "float32"}, {"name": "StatefulPartitionedCall/functional_1/time_distributed_1/BiasAdd_29/ReadVariableOp", "shape": [199], "dtype": "float32"}, {"name": "StatefulPartitionedCall/functional_1/time_distributed_1/transpose_1/perm", "shape": [3], "dtype": "int32"}, {"name": "ConstantFolding/StatefulPartitionedCall/functional_1/repeat_vector_1/Repeat/concat/values_1_const_axis", "shape": [], "dtype": "int32"}, {"name": "__inference_functional_1_lstm_1_while_cond_17955_frozen_1130/functional_1/lstm_1/while/Less/y", "shape": [], "dtype": "int32"}, {"name": "__inference_functional_1_lstm_1_2_while_cond_18100_frozen_1128/functional_1/lstm_1_2/while/Less/y", "shape": [], "dtype": "int32"}, {"name": "__inference_functional_1_lstm_2_1_while_body_18286_frozen_1131/functional_1/lstm_2_1/while/add/y", "shape": [], "dtype": "int32"}, {"name": "__inference_functional_1_lstm_2_1_while_body_18286_frozen_1131/functional_1/lstm_2_1/while/lstm_cell_1/split/split_dim", "shape": [], "dtype": "int32"}, {"name": "__inference_functional_1_lstm_2_1_while_body_18286_frozen_1131/functional_1/lstm_2_1/while/TensorArrayV2Read/TensorListGetItem/element_shape", "shape": [2], "dtype": "int32"}, {"name": "__inference_functional_1_lstm_2_1_while_body_18286_frozen_1131/functional_1/lstm_2_1/while/add_1/y", "shape": [], "dtype": "int32"}, {"name": "__inference_functional_1_lstm_1_while_body_17956_frozen_1127/functional_1/lstm_1/while/add/y", "shape": [], "dtype": "int32"}, {"name": "__inference_functional_1_lstm_1_while_body_17956_frozen_1127/functional_1/lstm_1/while/lstm_cell_1/split/split_dim", "shape": [], "dtype": "int32"}, {"name": "__inference_functional_1_lstm_1_while_body_17956_frozen_1127/functional_1/lstm_1/while/TensorArrayV2Read/TensorListGetItem/element_shape", "shape": [2], "dtype": "int32"}, {"name": "__inference_functional_1_lstm_1_while_body_17956_frozen_1127/functional_1/lstm_1/while/add_1/y", "shape": [], "dtype": "int32"}, {"name": "__inference_functional_1_lstm_1_2_while_body_18101_frozen_1129/functional_1/lstm_1_2/while/add/y", "shape": [], "dtype": "int32"}, {"name": "__inference_functional_1_lstm_1_2_while_body_18101_frozen_1129/functional_1/lstm_1_2/while/TensorArrayV2Write/TensorListSetItem/index", "shape": [], "dtype": "int32"}, {"name": "__inference_functional_1_lstm_1_2_while_body_18101_frozen_1129/functional_1/lstm_1_2/while/lstm_cell_1/split/split_dim", "shape": [], "dtype": "int32"}, {"name": "__inference_functional_1_lstm_1_2_while_body_18101_frozen_1129/functional_1/lstm_1_2/while/TensorArrayV2Read/TensorListGetItem/element_shape", "shape": [2], "dtype": "int32"}, {"name": "__inference_functional_1_lstm_1_2_while_body_18101_frozen_1129/functional_1/lstm_1_2/while/add_1/y", "shape": [], "dtype": "int32"}, {"name": "__inference_functional_1_lstm_2_1_while_cond_18285_frozen_1126/functional_1/lstm_2_1/while/Less/y", "shape": [], "dtype": "int32"}]}]}